heuristic_model.pt (torch, 75040 bytes, 14 tensors)

arc_list.Linear_1.weight f4 [128, 56]
000000 47 43 0b c0 a3 32 c6 bd 5c 50 7a 3f 08 25 b3 3d
       -2.1759813 -0.09677627 0.9777887 0.087472975
000010 3a c9 26 bf f0 38 43 bf d7 5f 56 bf a9 44 28 3f
       -0.651508 -0.76258755 -0.8373999 0.6572977
000020 bf 8a 8b bf 76 3a 3f be be f6 63 3f 08 8d 9c be
       -1.0901717 -0.18674645 0.89048374 -0.30576348
000030 5c 45 c9 bf 96 c6 57 c0 d4 98 a6 bf 08 4c ae 3e
       -1.5724292 -3.3714957 -1.301539 0.34042382
000040 ba 71 1a c0 b3 39 27 3f e6 ba 99 3e 4e 68 9d 3e
       -2.4131913 0.6532242 0.30025405 0.3074364
000050 b2 a2 8d bf 39 86 1b c0 b8 bc f8 bd 65 05 8c be
       -1.1065276 -2.4300673 -0.1214537 -0.27347866
000060 8a a1 e6 bf 2a 82 de be ed 42 90 bd 6d 97 6f bf
       -1.8018048 -0.43458682 -0.07044015 -0.9359043
000070 50 6c dd bf 4d 1f 04 bf fe 66 9a 3e f3 2b 74 c0
       -1.7298679 -0.5161026 0.30156702 -3.8151824
000080 c8 f4 8a c0 9d a2 c0 be 22 e7 f7 be f6 81 a7 3f
       -4.3423805 -0.37624064 -0.48418528 1.3086536
000090 b2 70 dc c0 ea b8 bb bf 99 3a 8e c0 c9 c3 33 bf
       -6.8887568 -1.4665806 -4.444653 -0.7022062
0000a0 f5 78 ef be 02 f7 a1 bf c9 1d 13 bf f0 08 f6 3c
       -0.4677197 -1.2653506 -0.57467324 0.030033559
0000b0 0b 29 88 bd 8e 55 8a 3f 7d 3e 84 3e 42 9d 9a 3f
       -0.06648453 1.0807359 0.25828925 1.2079241
0000c0 01 18 92 3e d2 41 a7 3e bb ed 0d 3f 9d 50 73 bb
       0.2853394 0.32667404 0.5544087 -0.0037126907
0000d0 53 cd 10 3e 11 ff 01 3e 15 4c 0e bf 37 6d 2b 3f
       0.14140825 0.12694956 -0.5558484 0.66963524
0000e0 4d 50 25 be cf b9 9f bd 2b 82 c5 bd 39 fd 0b be
       -0.16143914 -0.07799112 -0.09643968 -0.13670816
0000f0 25 ef ee bd cd c4 80 be 63 ad 54 be bb 96 35 be
       -0.11666707 -0.25150147 -0.20769267 -0.1773328
000100 06 7b 77 be 27 17 0a be 08 5f a5 bd 33 c1 4b be
       -0.24168023 -0.13485394 -0.080747664 -0.19897918
000110 45 c7 78 bd 0a 15 41 be f1 f7 9a bd 1f a1 65 3e
       -0.060736913 -0.18855682 -0.07566822 0.22424744
000120 46 52 8c be fb 3b 10 3c 52 09 25 be a8 d5 0b be
       -0.2740652 0.008803363 -0.16116837 -0.13655722
000130 77 82 52 be d1 78 d1 bd 4a db 12 3d 2e 23 13 3d
       -0.20557581 -0.10228122 0.03585366 0.03592222
000140 71 76 12 bd ea 07 23 be 88 7a 71 bd 35 75 52 be
       -0.035757486 -0.15920988 -0.058954746 -0.20552523
000150 a0 7e 2c be 43 cc 57 bd ce 32 dd be 8d 60 e6 bd
       -0.16845179 -0.052685034 -0.43202823 -0.11248884
000160 75 e2 bb be 32 4d 22 be 8a b0 d8 bd 18 b7 26 3a
       -0.3669621 -0.1584976 -0.10580547 0.00063596806
000170 de be dc bd 40 31 1d bf c3 ab b1 3b 6a 5b 00 bf
       -0.107785925 -0.61403275 0.005422087 -0.50139487
000180 40 a4 d0 be ec c4 c6 be 33 62 18 bd c0 ef 7a 3c
       -0.40750313 -0.38822114 -0.037203025 0.01531595
000190 02 67 9a be f5 a5 9a 3d ee 5d 32 be 8d 55 06 bd
       -0.30156714 0.07551185 -0.17418644 -0.03279643
0001a0 c8 af ce 3d d9 e0 73 be 95 35 a9 bd b7 5c ca 3c
       0.10092121 -0.23816241 -0.08262173 0.024702413
0001b0 57 c3 e4 bb 69 9e 9c bc 7d b0 05 3d d4 ad ea be
       -0.006981294 -0.019118505 0.032639015 -0.45835745
0001c0 36 57 df be 3c 40 1a c0 51 a7 52 bf bb ff bd 3e
       -0.43621224 -2.4101706 -0.82286555 0.3710917
0001d0 b9 4b 95 bf 9f e4 a4 3e 41 26 2a bf d7 3a 2b bf
       -1.1663734 0.32205674 -0.6646462 -0.6688666
0001e0 e6 45 eb 3e b3 a6 8a bf be 97 33 be 27 cd 87 bf
       0.45951766 -1.0832123 -0.17538354 -1.0609483
0001f0 0e 9b 1b be 04 bb 50 3f 5d 46 ec 3e 02 62 12 3f
       -0.15195867 0.81535363 0.46147433 0.571808
000200 b7 74 a1 3d 58 dd 87 be 5b b9 c5 be 9a 06 44 3e
       0.0788359 -0.2653606 -0.38617977 0.19143143
000210 66 99 95 be 6e 81 56 3e 4a 98 25 3e f1 18 ab bf
       -0.29218596 0.20947811 0.16171375 -1.3366987
000220 c1 ac 8d 3f 13 54 d7 bd fc c6 00 bf ef 84 57 3f
       1.1068345 -0.10514083 -0.50303626 0.84187216
000230 f5 bb 76 bb 0e 1a f3 3e 4d 6d ce 3e bf 1a e3 3e
       -0.0037648652 0.47480816 0.40317765 0.44356343
000240 90 a6 89 3f 37 34 3f 3e 98 d8 1a 3f 3b 08 01 bf
       1.0753956 0.18672262 0.60486746 -0.50403184
000250 71 7d 97 c0 6f 95 17 bd bf 13 cf 3e b3 58 5d 3f
       -4.7340627 -0.037007745 0.40444753 0.8646347
000260 cc 8a ad 3e f2 cf b8 be d0 97 75 3d 0a 11 79 3f
       0.33894956 -0.3609615 0.059959233 0.97291625
000270 32 b2 5c 3f f7 53 51 3f 07 26 7b 3e 5f 72 07 3f
       0.86209404 0.81768745 0.24526225 0.5290889
000280 53 cc 92 3f d2 6c e5 3e 7b 3d 21 3f 07 5d 29 bf
       1.1468605 0.44809586 0.62984437 -0.66157573
000290 95 0e 64 bf a3 36 79 3e 75 f8 56 3f 09 b0 c6 3f
       -0.8908475 0.24337249 0.83972865 1.5522472
0002a0 bc 54 17 bf ec e5 34 bf c4 ed de be 45 0b 6b bf
       -0.5911367 -0.7066333 -0.43540776 -0.9181407
0002b0 44 da cc bd 5b 05 91 bd 12 c0 67 bc 82 6b c4 3d
       -0.10002568 -0.070810996 -0.014144914 0.09590818
0002c0 71 95 dc 3e 43 9b f0 bf 30 6e e0 3d 99 6a b3 be
       0.43082765 -1.8797382 0.109585166 -0.35042265
0002d0 89 c1 3e bf 0d 18 ef 3e 2c 13 11 3e 4c c0 45 3c
       -0.7451406 0.46698037 0.1416747 0.012069773
0002e0 6d 93 3c be c6 2c 16 bf cf f9 26 be eb 23 4a be
       -0.18415613 -0.5866207 -0.16306232 -0.19740264
0002f0 c5 b8 c3 be cd d0 7e bf 9d f2 20 bf 18 89 16 bf
       -0.38226905 -0.99537355 -0.628702 -0.5880294
000300 5e c8 03 bf fd 29 5c be a4 5d c7 3e fa ac aa be
       -0.5147761 -0.21500392 0.3893863 -0.33335096
000310 ba 31 88 3e 4e b5 70 bd cc fa d3 be 5b 61 6b be
       0.26600438 -0.058766656 -0.4140228 -0.22986357
000320 53 c6 1f bf 85 20 28 bf b9 18 22 3f 22 63 9b be
       -0.62411994 -0.6567462 0.63318974 -0.3034907
000330 e1 63 63 3d 23 7c 37 be a4 bf d2 3a a4 71 c8 3e
       0.055515174 -0.17918448 0.0016078842 0.391492
000340 5b 10 fd 3c ca a2 b8 be 6d 5a 7d bd 8d 5a 24 3e
       0.030891588 -0.36061698 -0.061853815 0.16050167
000350 aa 85 6b be a7 49 5d be 7e 01 2b bd 39 81 e8 3d
       -0.23000208 -0.21610127 -0.04174947 0.11352772
000360 d2 84 8c 3e 25 fd f2 bd 46 c6 a6 be 9f 8c ea 3d
       0.27445084 -0.1186469 -0.32573146 0.114526026
000370 d3 77 7a be f2 30 09 bf 8f ce 7d be 43 d1 1c 3f
       -0.24459772 -0.5359031 -0.24785827 0.6125681
000380 ad 41 c5 be e3 58 26 bf 6f 31 c9 be 05 4e 7b be
       -0.3852667 -0.6497938 -0.39295527 -0.24541481
000390 93 27 b7 be e1 a7 59 bf 3e 9b b1 bf 7d 68 2a 3f
       -0.3577238 -0.8502179 -1.3875501 0.66565686
0003a0 24 57 16 c0 de a4 bd bf 92 f9 22 bf 56 e4 5a be
       -2.3490686 -1.4815938 -0.63662064 -0.21376166
0003b0 2e 2a 02 3d a8 03 0e c0 97 68 90 bf 6e 5e ad 3e
       0.031778507 -2.2189732 -1.1281918 0.33861107
0003c0 3b 08 11 c0 07 dc c1 3e da 23 04 3f 77 2c 9c 3e
       -2.2661273 0.3786318 0.51617205 0.30502674
0003d0 57 80 a6 bf a3 2a 0c c0 4d b5 5e 3f ea c7 2e 3e
       -1.3007916 -2.1901023 0.86995393 0.17068449
0003e0 c5 c6 89 3d ff 30 25 bf 65 10 df be 24 5d a7 be
       0.067273654 -0.6452789 -0.43567196 -0.32688248
0003f0 b8 d2 1f bf b8 10 b6 bf b7 5e 14 c0 7c d9 d3 bf
       -0.62430906 -1.4223852 -2.318281 -1.6550746

arc_list.Linear_1.bias f4 [128]
000000 a6 9e 31 3d fb c2 82 be d2 49 a9 3e e6 9b 85 be
       0.04336419 -0.25539383 0.33064133 -0.26095504
000010 5e 77 6f 3e 0d 3a ba be a6 f0 a4 be a0 7a 51 3e
       0.23385379 -0.36372414 -0.3221485 0.20456934
000020 80 1a 4d be 61 67 84 be e1 a5 16 be 26 4a b3 be
       -0.2002964 -0.25860122 -0.14711715 -0.35017508
000030 a8 43 ef bc b6 0b c1 bd b6 6b 80 be 60 31 ad be
       -0.029207066 -0.09426062 -0.25082177 -0.33826733
000040 99 38 28 3e 43 55 a6 bc fd b1 e9 bc 80 ed d0 3c
       0.1642784 -0.020304328 -0.028527254 0.025503874
000050 d4 fb 5c be 5a 2b 4d 3e 94 cc 84 3c 92 74 1d be
       -0.2158044 0.20036069 0.016210832 -0.153765
000060 d2 09 0f be 0a 2a ba bc 73 af 17 bd 0c e4 6c 3d
       -0.1396859 -0.022725124 -0.037032556 0.05783467
000070 f6 67 01 3c da 58 dd bc c9 62 b3 bd f1 b6 f1 bc
       0.007898321 -0.027019907 -0.08759076 -0.029506179
000080 c0 c7 55 3e 83 b5 ce bd a2 ef 72 be 54 eb 97 bc
       0.2087698 -0.10093214 -0.23724225 -0.01854483
000090 84 9b 96 3e e3 d2 72 be 47 79 b3 be d8 29 a9 be
       0.29415524 -0.2371326 -0.35053465 -0.33039737
0000a0 b2 87 18 be a7 b6 5b bd 27 ee 19 be 89 fd 49 bd
       -0.14895514 -0.053640988 -0.15032254 -0.049314056
0000b0 d6 20 24 3d 62 61 98 be 78 27 9e bd 40 ab 2f bd
       0.040070377 -0.29761797 -0.07722372 -0.042887926
0000c0 16 41 0f bf c5 7b 95 be 10 d4 59 bd ae 52 97 bd
       -0.5595869 -0.2919599 -0.053180754 -0.07388817
0000d0 bd df 94 be 51 61 dd bc 5a 66 51 be be be 2e be
       -0.2907695 -0.027023943 -0.204492 -0.1706495
0000e0 f9 f2 95 3e ba 08 f7 3e c7 f1 44 be 49 79 e7 3d
       0.29286936 0.48248845 -0.19232856 0.1130243
0000f0 3a 16 24 be 70 a8 35 3d 0b 6b d4 be 77 a9 0c bd
       -0.16024104 0.044350088 -0.41487917 -0.0343413
000100 f5 9a ae bd 33 c1 b4 3d d3 c0 59 3d 1e 3b 3f bd
       -0.085256495 0.08825912 0.053162407 -0.046687238
000110 51 18 01 be 1f e9 0e be 32 29 b0 bd ba 09 c7 bc
       -0.12606932 -0.13956116 -0.086016074 -0.02429663
000120 df e9 18 3d 78 0a db be 0f 91 6c 3d 88 30 1b be
       0.03733241 -0.42781425 0.057755526 -0.15155232
000130 fd 30 10 be a8 6c a3 3e 4c 4a d1 bd 69 c6 7f be
       -0.14081188 0.31918836 -0.10219249 -0.24978031
000140 70 1b e0 3e de f2 f8 bd 42 72 c0 3b 97 2d 0b bd
       0.43770933 -0.12155698 0.0058729956 -0.033979025
000150 24 17 81 be f6 57 98 be 2d c8 d7 3d a1 9a 6f be
       -0.25212967 -0.2975461 0.105362274 -0.2339883
000160 cf cc 83 be 36 e0 9f bd 93 f3 12 be c4 2f 06 be
       -0.25742194 -0.07806437 -0.14350729 -0.13104159
000170 de ce c3 3e 1f d5 b7 bc ca bf 2a be 46 9a 30 3e
       0.38243765 -0.022440491 -0.16674724 0.1724635
000180 03 81 ae bd 95 75 b0 be b3 e1 e7 bd 00 90 1e 3c
       -0.08520701 -0.34464708 -0.113223456 0.009677887
000190 28 b2 2f 3e c7 b5 35 be 92 ed a9 bc da 08 af be
       0.17157805 -0.17745124 -0.020743165 -0.3418644
0001a0 e2 af c6 3e ff 1c ec bd 8a 74 fc bd 77 dd ba be
       0.38806063 -0.11528968 -0.123269156 -0.3649709
0001b0 3f c8 51 be 3f d9 d5 bd b3 bd 57 3c be aa 8a be
       -0.20486544 -0.10441827 0.013167786 -0.2708339
0001c0 36 4f 88 bd 00 cd 70 3d 0c a8 00 bf 35 6c 06 3e
       -0.06655733 0.058789253 -0.5025642 0.13127215
0001d0 c9 80 47 be 64 46 e9 bd 75 66 42 3e b6 93 da be
       -0.19482721 -0.11390379 0.18984397 -0.4269082
0001e0 a9 01 3c bd c8 7e 0c bd 45 45 c1 3c af 96 96 be
       -0.04590002 -0.034300596 0.0235926 -0.29411837
0001f0 93 08 70 be c5 f8 f1 bd f6 d0 1e bd 82 22 45 3e
       -0.23440771 -0.11815027 -0.0387735 0.19251445

arc_list.Linear_2.weight f4 [64, 128]
000000 4f ee f3 bf 93 39 5d 3d 67 98 4d c0 3a 14 b2 3e
       -1.9057101 0.054009985 -3.212427 0.34781057
000010 0d df 58 bd ec ee 04 bd eb 35 ab bf b9 b1 1e bf
       -0.052947093 -0.032454416 -1.337583 -0.61989933
000020 fc 24 d3 be d7 7b a2 be 83 19 2e be 8e 5a b0 bd
       -0.41239154 -0.31735107 -0.1700192 -0.08611022
000030 b5 94 50 3f 08 18 15 be bc 56 7f bd f9 7d 18 3f
       0.8147691 -0.14559948 -0.062338576 0.5956722
000040 36 8d 20 be 63 8b d6 bf ba fe 05 bf 79 90 e4 be
       -0.15678868 -1.6761287 -0.52341807 -0.44641474
000050 17 49 6c 3e e3 47 cd 3d de 8a bd bd d4 d2 88 bf
       0.23074757 0.10023477 -0.092550024 -1.068934
000060 57 81 ca 3c b4 c9 8b bf e3 1a 14 bb 93 b6 64 3f
       0.024719877 -1.092093 -0.0022599034 0.89341086
000070 6d 37 18 bf 55 10 55 3e 56 c8 4b bd 8d a5 c6 bf
       -0.59459573 0.20807011 -0.049751602 -1.5519272
000080 76 dc b3 3f c2 06 f6 bf e5 31 08 bd 8b 2a 91 bf
       1.4051654 -1.9220812 -0.033250708 -1.1341108
000090 1f 38 f3 be 5b df 06 bd b1 8a 1e 3e 09 34 88 bc
       -0.47503754 -0.032927852 0.15482594 -0.016626375
0000a0 7d e7 79 bf 8a ed ca bd ff e2 76 bd 07 64 b7 be
       -0.9761885 -0.09908588 -0.060275074 -0.35818502
0000b0 3a 51 c3 bd be ce 2e be c5 c7 29 3c 76 fa af 3e
       -0.09536977 -0.17071053 0.01036257 0.34370774
0000c0 94 bf 22 bf 6d 05 ae bd 70 6d a5 be aa ca b3 bf
       -0.63573575 -0.08497129 -0.32310057 -1.4046223
0000d0 32 8b b4 bf 5b 50 65 be bd d8 0a bf 57 87 ce bd
       -1.4104979 -0.22393934 -0.54236966 -0.10084408
0000e0 05 68 d0 bf 42 8c 8f be 32 96 db 3e ab e7 88 bf
       -1.6281744 -0.28036696 0.42888027 -1.06957
0000f0 86 d3 ba be e1 24 28 bd 87 58 13 c0 45 a9 bc 3c
       -0.36489505 -0.041050795 -2.3022783 0.023029933
000100 a5 d8 92 3c b5 e9 98 3e de dd ab bf 8f 3d f7 be
       0.01792557 0.29865804 -1.3427083 -0.48289153
000110 5c 8d b1 3e b2 77 90 bd d2 bc c5 bd 59 4d 1f c0
       0.3467816 -0.0705408 -0.09655155 -2.489096
000120 78 9d ab 3f 8f 45 4d bd 4e b4 ab bf dd cf 9b 3d
       1.3407431 -0.050115164 -1.34144 0.07608006
000130 64 41 16 3c 5c 18 5a 3f 66 ca 97 be fc 19 21 bf
       0.009170864 0.8519342 -0.29646605 -0.62930274
000140 84 29 d5 bf f8 39 91 bd b2 f3 2c bb 66 44 96 3d
       -1.6653295 -0.07091135 -0.002639037 0.07337265
000150 48 37 ab be 7d 70 e8 bf 64 19 e7 bf d3 a7 ac be
       -0.33440614 -1.8159329 -1.8054624 -0.3372179
000160 64 5b 7b 3f 67 8e 26 3e 5e 40 53 be 67 20 ae bd
       0.98186326 0.1626526 -0.20630023 -0.08502274
000170 fc 4a 75 be a5 2e 86 bf 5c c1 33 3d 18 5d 34 c0
       -0.23954386 -1.0482985 0.043885574 -2.818182
000180 4a 40 8e bf fd 8c 96 3f 42 46 98 3f 24 49 b5 3c
       -1.111337 1.1761776 1.1896441 0.022129603
000190 88 d7 b6 bf 1c fe 83 bf eb fd f4 3c fd 93 b0 be
       -1.4284525 -1.0311923 0.029906234 -0.34487906
0001a0 0f 1a 21 c0 34 10 e4 be 87 19 45 bd 99 86 70 bf
       -2.5172155 -0.44543612 -0.048120048 -0.9395538
0001b0 f3 be c8 bd 54 de df bd 01 36 6c 3c b2 09 6d bf
       -0.09802046 -0.109310776 0.014417172 -0.9259292
0001c0 03 5c f3 bc 37 0e b5 bd 05 9b 51 bf 3e 1e 18 c0
       -0.02970696 -0.08840602 -0.81877166 -2.3768458
0001d0 ce c1 13 bf 26 8c 41 bc 2e 02 57 bf c4 ea 62 be
       -0.577176 -0.011813199 -0.839877 -0.22159868
0001e0 8a 6c 57 bc f7 71 02 bf 95 fc 08 be 06 65 08 bf
       -0.013148436 -0.50955147 -0.13377602 -0.5327915
0001f0 34 16 68 bc d8 51 af bf 15 0b 8a be 77 e1 2e 3f
       -0.01416545 -1.3696852 -0.2696158 0.6831278
000200 78 9c 17 3c 21 b4 c7 bd 42 aa 5d 3f f7 40 0b bf
       0.009253614 -0.09751154 0.8658792 -0.54396003
000210 28 38 72 3b 03 3c d0 3b aa a2 b1 bd c4 c1 86 bc
       0.0036959741 0.00635481 -0.08673604 -0.016449817
000220 03 72 db bd 84 04 09 3d 7f da 87 bd 3d 6d 92 3d
       -0.107151054 0.033451572 -0.06633472 0.07149742
000230 cb ed 39 bf 8b 68 81 be 55 01 1d 3d 40 83 45 be
       -0.7262847 -0.25275072 0.03833135 -0.19288349
000240 5d cc dc bd 5d 9e 3f bc b6 e4 ca be 9c f7 bb be
       -0.10781167 -0.011695472 -0.39627618 -0.36712348
000250 5d f2 33 bc 29 63 ee bc a6 74 38 bf ae e3 26 3e
       -0.010983077 -0.029100018 -0.7205299 0.1629779
000260 82 de 16 3e 67 1c 95 be 6e 97 80 bd bc 87 b3 bf
       0.14733317 -0.29123232 -0.06278883 -1.4025798
000270 83 23 98 bd e5 50 1d be da 8c cb bd 7d 3d 90 be
       -0.07428648 -0.1536289 -0.09938975 -0.28171912
000280 68 a6 0c bf 47 1d 9d be b4 fa 7a 3d ab 52 fd bf
       -0.54941416 -0.306864 0.061274245 -1.9790853
000290 bd 3a b1 be 67 80 6a 3d 37 1b ac be 24 b4 9b bd
       -0.34615126 0.05725136 -0.33614513 -0.076027185
0002a0 3b ab 23 bf 85 f9 b4 bd 6b 50 bd 3d 57 02 d6 bf
       -0.6393315 -0.088366546 0.09243854 -1.6719464
0002b0 36 aa e6 bd eb ea 08 bf f5 f4 00 be 82 0c e0 bf
       -0.11262934 -0.53483456 -0.12593444 -1.7503817
0002c0 90 23 eb 3d a9 b5 fe bd 0f 60 d8 bd a8 23 08 bf
       0.114813924 -0.12436993 -0.10565197 -0.5317941
0002d0 9e 7d a7 3e 60 35 5c bd 9a 19 18 3d 85 ed df bf
       0.32713026 -0.05376184 0.03713379 -1.749436
0002e0 c5 1c 80 bf 6a 45 d6 bf 38 50 c2 bf c1 d3 47 bf
       -1.000878 -1.6739933 -1.5180731 -0.78057486
0002f0 b3 10 67 3f 88 e2 6e bd c9 55 4d bf 06 e0 b3 bc
       0.90259856 -0.058321506 -0.8020902 -0.021957409
000300 c3 ea f1 3d b5 0e a1 bf 93 45 cb 3e f7 b5 33 be
       0.11812355 -1.2582613 0.39701518 -0.17549883
000310 69 a1 26 be 06 b5 7c bd fb b2 0a 3d 5b 9c 04 bf
       -0.1627251 -0.061696075 0.033862095 -0.5180108
000320 9a 66 ca bf a8 de 91 3e 40 e6 67 be 09 69 9d bd
       -1.5812562 0.28490186 -0.22646427 -0.076860495
000330 3e 0c 64 3d cf 75 57 be f4 a8 5a 3d 9c 67 c9 bd
       0.055675738 -0.21041034 0.053383783 -0.09834215
000340 c9 1d c3 3a 74 9c dd 3c 5c ee 66 bd 09 90 46 3d
       0.0014886196 0.027052142 -0.05637966 0.048477206
000350 dd cf 34 3d 05 77 bc 3e 96 80 96 bf 74 b8 a9 bd
       0.044143546 0.36809555 -1.1757991 -0.08287135
000360 be a8 82 3b 16 f1 87 bf ff df 41 3d 69 d4 d3 39
       0.003987401 -1.0620449 0.04733276 0.00040403314
000370 5f c7 90 bf dd 45 2c bf b9 1c 0b be 94 6f 05 bf
       -1.1310843 -0.672941 -0.13585176 -0.5212338
000380 42 5b d8 be d9 3e 01 be 22 85 9b bf 07 26 c0 3d
       -0.42257124 -0.1262163 -1.2150004 0.09382253
000390 13 c5 d4 bf 2b 53 71 be 9d 41 55 3c 82 2e ca 3d
       -1.6622642 -0.23566882 0.013016132 0.09872152
0003a0 97 11 fa be 43 5c e5 bd 27 ea a5 3c bc 53 88 bd
       -0.48841545 -0.11199238 0.020253254 -0.06656596
0003b0 c2 d1 56 3d 23 07 63 3c 8d 25 f3 bd eb af 64 bf
       0.052446134 0.013856682 -0.118723966 -0.8933093
0003c0 02 3c a1 bc 7b 82 ea be 1f 4d fd bd 99 bb 3b be
       -0.019681934 -0.45802674 -0.12368225 -0.18333282
0003d0 91 f4 9a bf 7e a5 86 3c 69 65 14 3d 52 47 75 3d
       -1.2105886 0.016436335 0.036229525 0.05988247
0003e0 f0 25 03 bd f0 d8 70 bd f4 7e 9d 3b 16 a8 19 bd
       -0.032018602 -0.058800638 0.0048063938 -0.037513815
0003f0 35 ca e3 3c db 41 33 bd 89 c6 74 bd 08 5e 17 c0
       0.02780638 -0.043763977 -0.05975965 -2.3651142

arc_list.Linear_2.bias f4 [64]
000000 9f 45 4e 3f 13 37 85 3f 3a ef 71 3e ab 8e 55 be
       0.80574983 1.0407432 0.23626414 -0.20855205
000010 0f 0e dc bd a9 d1 2d 3f 55 be b9 40 94 a6 8b 3f
       -0.10744869 0.6789804 5.804484 1.0910211
000020 aa e2 13 be bd 92 36 3f a7 34 f3 bd 40 bb 91 3f
       -0.14441934 0.71317655 -0.11875277 1.1385269
000030 02 67 13 be d3 fe 41 bf 09 ef ec bc a1 f1 9d 3e
       -0.14394763 -0.75779456 -0.028922575 0.3084841
000040 89 21 99 bf ff 7d 84 3f b8 21 43 3e cb f1 10 be
       -1.1963359 1.0350951 0.19055831 -0.14154737
000050 c5 50 b9 3e 84 bb bd 3e 77 cd b5 be 40 08 bf bf
       0.36194435 0.37057126 -0.3550832 -1.4924393
000060 0b 1b dc 3e 0f b0 d0 be df 48 f3 3e 61 ce b4 bd
       0.42989382 -0.40759322 0.47516534 -0.08828426
000070 87 33 9f bd cc 48 24 40 b5 c0 de be b2 83 ab 3e
       -0.077735 2.5669432 -0.435064 0.33498913
000080 e3 8d 69 3f ea 81 a8 be 1b 70 4a bd df c0 cf 3e
       0.91232127 -0.32911617 -0.04942332 0.40576836
000090 3e 5d 2e bf 89 e6 be be c9 6a dc 3e 9c ed 84 3f
       -0.68111026 -0.3728526 0.4305022 1.0385013
0000a0 9d a5 02 bf b8 49 22 bf 24 ab d4 3f 45 4a 51 be
       -0.51033956 -0.63393736 1.6614728 -0.20438488
0000b0 d3 83 ad 3e 32 7f d3 3e fd ad c4 3f 8d 05 89 3f
       0.33889636 0.4130798 1.5365597 1.0704819
0000c0 c8 46 08 be e6 24 bc bd d2 20 d7 3d 3a d7 57 3f
       -0.13308251 -0.09186725 0.10504307 0.84312785
0000d0 d6 7d a8 be 04 9a 2c be 4a 23 5e 3f 30 b5 73 3e
       -0.32908505 -0.16855627 0.86772597 0.23799586
0000e0 3b 26 a3 3f 6e 17 c1 be 10 57 16 bf 62 af b8 3f
       1.2746042 -0.37713188 -0.58726597 1.4428523
0000f0 11 98 1f 3f 71 91 d8 be a8 7a 36 3f 9b 83 58 bf
       0.6234141 -0.42298463 0.7128091 -0.84575814

arc_list.Linear_3.weight f4 [32, 64]
000000 cc ab 11 3f b4 8e e5 3e 56 cc 00 3d 7e 34 e7 3c
       0.56902766 0.44835436 0.03144487 0.028223272
000010 d5 77 fe 3d 66 b6 20 bf fe 56 4c c0 f0 1d cb 3e
       0.124252 -0.6277832 -3.1928096 0.39671278
000020 bc 24 54 be ab ca 1c bd 64 62 6f 3d 98 7f e7 3e
       -0.20717138 -0.038279217 0.058443442 0.45214534
000030 67 81 fc 3d 0f ea e1 3d d1 3c 1e bd 3a df 12 3d
       0.12329369 0.11030971 -0.038632218 0.035857417
000040 2f 8d 0d bf 01 7f 84 3e 8b 99 11 3f f0 07 12 bd
       -0.55293554 0.25878146 0.5687491 -0.0356521
000050 2f 38 bc 3b d5 93 5a bd 16 52 c1 3e cb b7 31 bf
       0.0057440023 -0.05336364 0.3775794 -0.6942107
000060 87 23 98 3b 37 24 c6 bc ad 35 f9 3b ca 53 7d 3d
       0.004642907 -0.02418719 0.0076052756 0.061847486
000070 df 5d 96 3d d5 f3 fe 3f 6e c4 a3 3b 82 74 a6 ba
       0.07342123 1.9918162 0.0049977815 -0.0012699517
000080 3a 2d fe bc 6c 01 ac bd 82 49 1e bd 13 c9 38 bf
       -0.031027425 -0.08398709 -0.03864432 -0.72181815
000090 06 40 07 3e ff e1 44 be 60 c9 d6 bb f3 df ad 3e
       0.13208017 -0.19226836 -0.0065547675 0.33959922
0000a0 52 f5 93 be d2 e7 41 be f4 eb 12 3f f1 74 ac 3d
       -0.28898102 -0.18936089 0.57391286 0.08420742
0000b0 dd 33 89 3c 65 81 22 be 09 96 a8 be 5b 13 db 3e
       0.016748363 -0.15869673 -0.32926968 0.42788205
0000c0 97 a3 da 3d 03 53 48 bd 9b 98 d6 3b 9e f4 83 3d
       0.106757335 -0.04890729 0.0065489537 0.064431414
0000d0 b8 cd fe 3c 39 f3 98 bb e5 37 15 3e 48 8d fc ba
       0.031103954 -0.0046676663 0.14572103 -0.0019268179
0000e0 bb 87 f0 bd 19 44 8d 3e 5d 13 2f bd 98 94 4f 3e
       -0.117446385 0.27591017 -0.042743076 0.20271528
0000f0 44 6f db be bb 32 f6 3c c5 ea 49 bf b7 07 91 3e
       -0.42858326 0.030053487 -0.78873855 0.28326198
000100 8f 6d 59 be 70 02 fb bd ad 13 5b bd b8 96 55 bd
       -0.212332 -0.12256324 -0.05348556 -0.05214569
000110 28 a7 3b bd b4 b1 9f 3d 20 db ac 3d 42 7c b0 be
       -0.04581371 0.07797566 0.08440232 -0.344698
000120 f6 98 c4 bd 2e 4c 6d be 60 5b cd bb e0 49 41 bf
       -0.095994875 -0.23173591 -0.0062669963 -0.7550335
000130 a3 84 b5 bd 8d 91 ba be 7c a6 1d 3d 28 94 11 bf
       -0.08863189 -0.3643917 0.03848885 -0.56866693
000140 5d 7b c2 be 04 70 d8 be 08 5b 1d be e0 29 ee bc
       -0.37984744 -0.4227296 -0.15366757 -0.029072702
000150 6e aa d9 be b2 a6 94 be 44 4c e9 bd f0 ec 5c 3e
       -0.4251284 -0.29033428 -0.113915 0.2157476
000160 13 6c 00 bf 44 c5 3f 3d 49 69 0e bf d4 07 4b 3d
       -0.5016491 0.046818987 -0.556294 0.049568012
000170 fc d0 e7 bd c2 13 89 be 60 3d b3 3d 2e 0d 26 bf
       -0.113191575 -0.26772887 0.08751941 -0.6486386
000180 92 38 e0 be 40 e6 f7 bd e7 4a 1a bf 51 e0 bd be
       -0.4379316 -0.121044636 -0.6027054 -0.37085202
000190 0f 16 a2 3e 24 e9 27 be cb a7 8d be 55 9a 12 bf
       0.31657454 -0.1639753 -0.27667078 -0.5726674
0001a0 09 51 09 3d 59 a8 b5 be 28 01 9d be 1a 52 db 3d
       0.033524547 -0.35480002 -0.30664945 0.10709019
0001b0 df 3b 07 bf 79 38 cb be 22 7b 91 be fb 92 1c bf
       -0.5282573 -0.39691523 -0.28414255 -0.61161774
0001c0 ac 8b 6f 3d c0 7c 40 bd d8 e8 d6 be d2 06 98 be
       0.05848281 -0.04699397 -0.4197452 -0.29692703
0001d0 fc 0b cc be 83 b3 89 be 0b bd e7 be b8 4c 77 be
       -0.39852893 -0.2689477 -0.45261416 -0.2415036
0001e0 72 0b f6 be b0 53 d9 bd c0 3f b7 bd 8d a5 cb bd
       -0.48055607 -0.10611665 -0.08947706 -0.09943686
0001f0 d2 d1 10 be 12 b1 e6 3d 98 c1 d4 bc 0e 00 e2 bd
       -0.1414254 0.11264242 -0.025971219 -0.11035167
000200 2c 6a 5e 3e 38 a0 f4 be 20 34 f4 bd 3a 6f 2f bd
       0.21720189 -0.47778487 -0.119240046 -0.042830683
000210 9d 33 5b 3d 6f 61 6e be 0e cd ca bf af 95 96 be
       0.05351602 -0.23279355 -1.5843828 -0.29411075
000220 0a 25 2f 3e 80 bd 91 bd a7 73 9d 3d 36 01 94 be
       0.17103973 -0.071162224 0.076880746 -0.28907174
000230 42 c5 ab b8 c2 32 11 be 50 d8 a2 3d aa dc ba be
       -8.1906575e-05 -0.14179519 0.079514146 -0.36496478
000240 3e 77 99 3d 1e af 93 be 0b 89 de bd 58 75 c8 3c
       0.07493447 -0.2884454 -0.108659826 0.024470016
000250 f8 4c 7d be d7 c3 fa bd 7f 87 0c 3f 50 d6 bd bf
       -0.24736392 -0.12244385 0.5489425 -1.4831028
000260 4c c8 13 be 23 f1 32 3e 02 2a 5a be 25 bb 64 bd
       -0.14431876 0.17474799 -0.21305087 -0.055842537
000270 80 2b 2b bd 18 f0 65 bf 5a 07 f5 3d 5b e6 01 bf
       -0.04178953 -0.8981948 0.11964293 -0.5074212
000280 e0 71 c3 be b4 15 b6 3e 5d ec 8f bc ba 17 23 3f
       -0.38172817 0.35563433 -0.017568761 0.6370808
000290 38 c2 d8 bd 16 a5 6f be 73 bb da bd fb b7 c0 be
       -0.10583919 -0.23402819 -0.10680284 -0.37640366
0002a0 3b 7c 2d bd 13 41 81 3f fe df 9b bc b4 88 01 3e
       -0.042354804 1.0097984 -0.019027706 0.12649804
0002b0 19 11 b2 be e3 da 0b be 10 58 7d be 09 38 d3 be
       -0.3477867 -0.13657717 -0.24740624 -0.4125369
0002c0 18 7e f8 bd 2b 9d 17 3e 2d fb 74 be bb eb d4 bd
       -0.121334255 0.14806049 -0.23923941 -0.103965245
0002d0 b5 19 04 be ed 56 b7 ba d4 f1 a3 be 71 85 f1 bc
       -0.12900431 -0.0013987698 -0.32020438 -0.029482575
0002e0 3c bf 81 be 08 a5 9c 3d 39 ab 07 3e 09 74 16 3d
       -0.25341213 0.07648665 0.1324891 0.036731753
0002f0 07 7d 6e 3d 4b 4d 0c 3e a5 f6 dd 3c be 19 ef 3d
       0.058224704 0.1370136 0.027095148 0.11674832
000300 ca f5 92 be 48 7b ab 3d 71 e1 d3 3c 8f 77 c1 3d
       -0.28703147 0.083731234 0.025864335 0.09446632
000310 9a 4a 49 3e 74 f9 49 be e7 1e a7 bc 78 ff 48 bd
       0.19657364 -0.19724065 -0.020400478 -0.04907176
000320 29 1b de 3d 0b 8e fe bd 3e 2b 52 bd 2d 11 aa bd
       0.10845024 -0.12429436 -0.05131077 -0.08304057
000330 de 23 c2 3d 8b 4b 6e bc 9a 80 81 3d 3c c2 5c bc
       0.094794974 -0.014544378 0.06323357 -0.013474043
000340 3c fb 11 be 1b 91 09 bc e0 32 ab bd 49 3d fe bd
       -0.14255995 -0.008396412 -0.08359313 -0.12414033
000350 7a ea 30 3d d1 56 35 3b e7 6c 48 be fc ab 26 be
       0.043192364 0.0027670155 -0.19572793 -0.16276544
000360 c6 71 b8 3d a6 5b 07 3e e5 f5 ef bd 66 45 b9 3c
       0.090060756 0.13218555 -0.117168225 0.0226161
000370 d4 44 45 3d b3 40 1e be c1 a8 ff 3d fe bf 6d 3c
       0.048161343 -0.15454368 0.12483359 0.014511107
000380 2c e5 0b 3d 76 a8 8e bc 10 7e f8 3b e2 50 98 bd
       0.034154102 -0.017414313 0.007583387 -0.07437302
000390 4a 4e d0 bd 80 b9 f4 bd eb 9f 77 3b cf 14 6b bd
       -0.101711825 -0.11949444 0.0037784528 -0.05739289
0003a0 5a 57 c9 bc a5 dc dd 3c 5f 41 24 be 80 36 9c bb
       -0.024577785 0.02708275 -0.16040562 -0.004767239
0003b0 b2 c9 2a 3a 99 25 2f 3c bd 98 2e bd c9 b9 e6 b8
       0.00065150403 0.010690116 -0.04262613 -0.0001100186
0003c0 ed 9a 0f 3e 11 4c 91 bc 0f 84 a1 bd 83 f2 b1 bd
       0.14023943 -0.017736467 -0.07886516 -0.086888336
0003d0 50 36 c8 bd e5 f0 e3 bd 13 0a 9d bd 84 9e 75 bd
       -0.09775984 -0.11129931 -0.07667937 -0.059965625
0003e0 48 9f 4d bc 82 48 a2 3d 2a c9 84 3e ad b7 f9 bd
       -0.012550183 0.07923986 0.25934726 -0.121932365
0003f0 4b cc 80 3d 10 26 8f 3e 3f d0 06 3d d1 f6 47 bd
       0.06288966 0.27958727 0.032913443 -0.048819367

arc_list.Linear_3.bias f4 [32]
000000 7e c0 f7 3f 2e 3a ac be 73 26 5f be 38 29 3e bd
       1.9355619 -0.33638138 -0.21792011 -0.046426028
000010 0e d4 70 3e 10 5e c4 bd da 65 5d bc 9c 10 b9 be
       0.23518392 -0.095882535 -0.013513053 -0.36145484
000020 42 8c 49 3e 58 58 fb be c7 82 d5 be ac da 67 3e
       0.1968241 -0.49090838 -0.41701338 0.2264201
000030 b6 7d 48 be 0d fd 16 be 5f b3 3d be f3 00 19 3e
       -0.19579205 -0.14744969 -0.18525456 0.14941768
000040 8b ec f3 3e c3 45 e0 be 22 77 00 3e 9a 74 36 be
       0.47641405 -0.43803224 0.12545446 -0.17817917
000050 02 42 a2 be 16 e2 c7 be 47 ae d1 3f ae 53 f8 3e
       -0.31690985 -0.39039677 1.638131 0.48501343
000060 0a d5 dc 3e 5c 7b 54 be d5 cf 98 3f 3e 0e fb 3e
       0.43131286 -0.20750183 1.1938425 0.49034303
000070 d5 03 29 40 a4 82 8a 3f 2b 1c 08 bd 23 b4 dc bd
       2.640859 1.0821118 -0.033229988 -0.10776546

arc_list.Linear_4.weight f4 [1, 32]
000000 4f 1e 86 3e 60 cf 90 3d a5 5b 0c 3e 31 9c dd 3b
       0.26195 0.07070804 0.13706835 0.006763004
000010 ca 91 ca bc 31 f0 6a be 75 5a d2 3d 33 64 5a be
       -0.02472772 -0.22943188 0.102711596 -0.21327285
000020 33 3d a4 3d e1 2f 9e 3d 31 55 51 3e 77 72 e3 3c
       0.08019485 0.07723976 0.20442654 0.027764542
000030 4d 27 b0 3a d0 aa e5 3c 50 9f 00 3e 84 9e ac bc
       0.0013439447 0.028035551 0.12560773 -0.02107168
000040 3e 24 99 b7 38 ab 81 be 28 ab 08 bc 49 db c4 3d
       -1.8255898e-05 -0.25325942 -0.008341588 0.09612138
000050 2c 16 81 3e 5d a1 95 bd 8a d6 9a be b6 6a af bc
       0.25212228 -0.07306168 -0.30241805 -0.021413188
000060 67 37 16 bc 49 29 8c be 20 7c 13 bb 70 65 ef bc
       -0.009168482 -0.27375248 -0.0022504404 -0.029223174
000070 1c 48 c1 bf e1 38 6c be f2 0d 7b 3d e7 48 ab bd
       -1.5100131 -0.23068573 0.061292596 -0.083635144

arc.0.weight f4 [128, 56]
000000 47 43 0b c0 a3 32 c6 bd 5c 50 7a 3f 08 25 b3 3d
       -2.1759813 -0.09677627 0.9777887 0.087472975
000010 3a c9 26 bf f0 38 43 bf d7 5f 56 bf a9 44 28 3f
       -0.651508 -0.76258755 -0.8373999 0.6572977
000020 bf 8a 8b bf 76 3a 3f be be f6 63 3f 08 8d 9c be
       -1.0901717 -0.18674645 0.89048374 -0.30576348
000030 5c 45 c9 bf 96 c6 57 c0 d4 98 a6 bf 08 4c ae 3e
       -1.5724292 -3.3714957 -1.301539 0.34042382
000040 ba 71 1a c0 b3 39 27 3f e6 ba 99 3e 4e 68 9d 3e
       -2.4131913 0.6532242 0.30025405 0.3074364
000050 b2 a2 8d bf 39 86 1b c0 b8 bc f8 bd 65 05 8c be
       -1.1065276 -2.4300673 -0.1214537 -0.27347866
000060 8a a1 e6 bf 2a 82 de be ed 42 90 bd 6d 97 6f bf
       -1.8018048 -0.43458682 -0.07044015 -0.9359043
000070 50 6c dd bf 4d 1f 04 bf fe 66 9a 3e f3 2b 74 c0
       -1.7298679 -0.5161026 0.30156702 -3.8151824
000080 c8 f4 8a c0 9d a2 c0 be 22 e7 f7 be f6 81 a7 3f
       -4.3423805 -0.37624064 -0.48418528 1.3086536
000090 b2 70 dc c0 ea b8 bb bf 99 3a 8e c0 c9 c3 33 bf
       -6.8887568 -1.4665806 -4.444653 -0.7022062
0000a0 f5 78 ef be 02 f7 a1 bf c9 1d 13 bf f0 08 f6 3c
       -0.4677197 -1.2653506 -0.57467324 0.030033559
0000b0 0b 29 88 bd 8e 55 8a 3f 7d 3e 84 3e 42 9d 9a 3f
       -0.06648453 1.0807359 0.25828925 1.2079241
0000c0 01 18 92 3e d2 41 a7 3e bb ed 0d 3f 9d 50 73 bb
       0.2853394 0.32667404 0.5544087 -0.0037126907
0000d0 53 cd 10 3e 11 ff 01 3e 15 4c 0e bf 37 6d 2b 3f
       0.14140825 0.12694956 -0.5558484 0.66963524
0000e0 4d 50 25 be cf b9 9f bd 2b 82 c5 bd 39 fd 0b be
       -0.16143914 -0.07799112 -0.09643968 -0.13670816
0000f0 25 ef ee bd cd c4 80 be 63 ad 54 be bb 96 35 be
       -0.11666707 -0.25150147 -0.20769267 -0.1773328
000100 06 7b 77 be 27 17 0a be 08 5f a5 bd 33 c1 4b be
       -0.24168023 -0.13485394 -0.080747664 -0.19897918
000110 45 c7 78 bd 0a 15 41 be f1 f7 9a bd 1f a1 65 3e
       -0.060736913 -0.18855682 -0.07566822 0.22424744
000120 46 52 8c be fb 3b 10 3c 52 09 25 be a8 d5 0b be
       -0.2740652 0.008803363 -0.16116837 -0.13655722
000130 77 82 52 be d1 78 d1 bd 4a db 12 3d 2e 23 13 3d
       -0.20557581 -0.10228122 0.03585366 0.03592222
000140 71 76 12 bd ea 07 23 be 88 7a 71 bd 35 75 52 be
       -0.035757486 -0.15920988 -0.058954746 -0.20552523
000150 a0 7e 2c be 43 cc 57 bd ce 32 dd be 8d 60 e6 bd
       -0.16845179 -0.052685034 -0.43202823 -0.11248884
000160 75 e2 bb be 32 4d 22 be 8a b0 d8 bd 18 b7 26 3a
       -0.3669621 -0.1584976 -0.10580547 0.00063596806
000170 de be dc bd 40 31 1d bf c3 ab b1 3b 6a 5b 00 bf
       -0.107785925 -0.61403275 0.005422087 -0.50139487
000180 40 a4 d0 be ec c4 c6 be 33 62 18 bd c0 ef 7a 3c
       -0.40750313 -0.38822114 -0.037203025 0.01531595
000190 02 67 9a be f5 a5 9a 3d ee 5d 32 be 8d 55 06 bd
       -0.30156714 0.07551185 -0.17418644 -0.03279643
0001a0 c8 af ce 3d d9 e0 73 be 95 35 a9 bd b7 5c ca 3c
       0.10092121 -0.23816241 -0.08262173 0.024702413
0001b0 57 c3 e4 bb 69 9e 9c bc 7d b0 05 3d d4 ad ea be
       -0.006981294 -0.019118505 0.032639015 -0.45835745
0001c0 36 57 df be 3c 40 1a c0 51 a7 52 bf bb ff bd 3e
       -0.43621224 -2.4101706 -0.82286555 0.3710917
0001d0 b9 4b 95 bf 9f e4 a4 3e 41 26 2a bf d7 3a 2b bf
       -1.1663734 0.32205674 -0.6646462 -0.6688666
0001e0 e6 45 eb 3e b3 a6 8a bf be 97 33 be 27 cd 87 bf
       0.45951766 -1.0832123 -0.17538354 -1.0609483
0001f0 0e 9b 1b be 04 bb 50 3f 5d 46 ec 3e 02 62 12 3f
       -0.15195867 0.81535363 0.46147433 0.571808
000200 b7 74 a1 3d 58 dd 87 be 5b b9 c5 be 9a 06 44 3e
       0.0788359 -0.2653606 -0.38617977 0.19143143
000210 66 99 95 be 6e 81 56 3e 4a 98 25 3e f1 18 ab bf
       -0.29218596 0.20947811 0.16171375 -1.3366987
000220 c1 ac 8d 3f 13 54 d7 bd fc c6 00 bf ef 84 57 3f
       1.1068345 -0.10514083 -0.50303626 0.84187216
000230 f5 bb 76 bb 0e 1a f3 3e 4d 6d ce 3e bf 1a e3 3e
       -0.0037648652 0.47480816 0.40317765 0.44356343
000240 90 a6 89 3f 37 34 3f 3e 98 d8 1a 3f 3b 08 01 bf
       1.0753956 0.18672262 0.60486746 -0.50403184
000250 71 7d 97 c0 6f 95 17 bd bf 13 cf 3e b3 58 5d 3f
       -4.7340627 -0.037007745 0.40444753 0.8646347
000260 cc 8a ad 3e f2 cf b8 be d0 97 75 3d 0a 11 79 3f
       0.33894956 -0.3609615 0.059959233 0.97291625
000270 32 b2 5c 3f f7 53 51 3f 07 26 7b 3e 5f 72 07 3f
       0.86209404 0.81768745 0.24526225 0.5290889
000280 53 cc 92 3f d2 6c e5 3e 7b 3d 21 3f 07 5d 29 bf
       1.1468605 0.44809586 0.62984437 -0.66157573
000290 95 0e 64 bf a3 36 79 3e 75 f8 56 3f 09 b0 c6 3f
       -0.8908475 0.24337249 0.83972865 1.5522472
0002a0 bc 54 17 bf ec e5 34 bf c4 ed de be 45 0b 6b bf
       -0.5911367 -0.7066333 -0.43540776 -0.9181407
0002b0 44 da cc bd 5b 05 91 bd 12 c0 67 bc 82 6b c4 3d
       -0.10002568 -0.070810996 -0.014144914 0.09590818
0002c0 71 95 dc 3e 43 9b f0 bf 30 6e e0 3d 99 6a b3 be
       0.43082765 -1.8797382 0.109585166 -0.35042265
0002d0 89 c1 3e bf 0d 18 ef 3e 2c 13 11 3e 4c c0 45 3c
       -0.7451406 0.46698037 0.1416747 0.012069773
0002e0 6d 93 3c be c6 2c 16 bf cf f9 26 be eb 23 4a be
       -0.18415613 -0.5866207 -0.16306232 -0.19740264
0002f0 c5 b8 c3 be cd d0 7e bf 9d f2 20 bf 18 89 16 bf
       -0.38226905 -0.99537355 -0.628702 -0.5880294
000300 5e c8 03 bf fd 29 5c be a4 5d c7 3e fa ac aa be
       -0.5147761 -0.21500392 0.3893863 -0.33335096
000310 ba 31 88 3e 4e b5 70 bd cc fa d3 be 5b 61 6b be
       0.26600438 -0.058766656 -0.4140228 -0.22986357
000320 53 c6 1f bf 85 20 28 bf b9 18 22 3f 22 63 9b be
       -0.62411994 -0.6567462 0.63318974 -0.3034907
000330 e1 63 63 3d 23 7c 37 be a4 bf d2 3a a4 71 c8 3e
       0.055515174 -0.17918448 0.0016078842 0.391492
000340 5b 10 fd 3c ca a2 b8 be 6d 5a 7d bd 8d 5a 24 3e
       0.030891588 -0.36061698 -0.061853815 0.16050167
000350 aa 85 6b be a7 49 5d be 7e 01 2b bd 39 81 e8 3d
       -0.23000208 -0.21610127 -0.04174947 0.11352772
000360 d2 84 8c 3e 25 fd f2 bd 46 c6 a6 be 9f 8c ea 3d
       0.27445084 -0.1186469 -0.32573146 0.114526026
000370 d3 77 7a be f2 30 09 bf 8f ce 7d be 43 d1 1c 3f
       -0.24459772 -0.5359031 -0.24785827 0.6125681
000380 ad 41 c5 be e3 58 26 bf 6f 31 c9 be 05 4e 7b be
       -0.3852667 -0.6497938 -0.39295527 -0.24541481
000390 93 27 b7 be e1 a7 59 bf 3e 9b b1 bf 7d 68 2a 3f
       -0.3577238 -0.8502179 -1.3875501 0.66565686
0003a0 24 57 16 c0 de a4 bd bf 92 f9 22 bf 56 e4 5a be
       -2.3490686 -1.4815938 -0.63662064 -0.21376166
0003b0 2e 2a 02 3d a8 03 0e c0 97 68 90 bf 6e 5e ad 3e
       0.031778507 -2.2189732 -1.1281918 0.33861107
0003c0 3b 08 11 c0 07 dc c1 3e da 23 04 3f 77 2c 9c 3e
       -2.2661273 0.3786318 0.51617205 0.30502674
0003d0 57 80 a6 bf a3 2a 0c c0 4d b5 5e 3f ea c7 2e 3e
       -1.3007916 -2.1901023 0.86995393 0.17068449
0003e0 c5 c6 89 3d ff 30 25 bf 65 10 df be 24 5d a7 be
       0.067273654 -0.6452789 -0.43567196 -0.32688248
0003f0 b8 d2 1f bf b8 10 b6 bf b7 5e 14 c0 7c d9 d3 bf
       -0.62430906 -1.4223852 -2.318281 -1.6550746

arc.0.bias f4 [128]
000000 a6 9e 31 3d fb c2 82 be d2 49 a9 3e e6 9b 85 be
       0.04336419 -0.25539383 0.33064133 -0.26095504
000010 5e 77 6f 3e 0d 3a ba be a6 f0 a4 be a0 7a 51 3e
       0.23385379 -0.36372414 -0.3221485 0.20456934
000020 80 1a 4d be 61 67 84 be e1 a5 16 be 26 4a b3 be
       -0.2002964 -0.25860122 -0.14711715 -0.35017508
000030 a8 43 ef bc b6 0b c1 bd b6 6b 80 be 60 31 ad be
       -0.029207066 -0.09426062 -0.25082177 -0.33826733
000040 99 38 28 3e 43 55 a6 bc fd b1 e9 bc 80 ed d0 3c
       0.1642784 -0.020304328 -0.028527254 0.025503874
000050 d4 fb 5c be 5a 2b 4d 3e 94 cc 84 3c 92 74 1d be
       -0.2158044 0.20036069 0.016210832 -0.153765
000060 d2 09 0f be 0a 2a ba bc 73 af 17 bd 0c e4 6c 3d
       -0.1396859 -0.022725124 -0.037032556 0.05783467
000070 f6 67 01 3c da 58 dd bc c9 62 b3 bd f1 b6 f1 bc
       0.007898321 -0.027019907 -0.08759076 -0.029506179
000080 c0 c7 55 3e 83 b5 ce bd a2 ef 72 be 54 eb 97 bc
       0.2087698 -0.10093214 -0.23724225 -0.01854483
000090 84 9b 96 3e e3 d2 72 be 47 79 b3 be d8 29 a9 be
       0.29415524 -0.2371326 -0.35053465 -0.33039737
0000a0 b2 87 18 be a7 b6 5b bd 27 ee 19 be 89 fd 49 bd
       -0.14895514 -0.053640988 -0.15032254 -0.049314056
0000b0 d6 20 24 3d 62 61 98 be 78 27 9e bd 40 ab 2f bd
       0.040070377 -0.29761797 -0.07722372 -0.042887926
0000c0 16 41 0f bf c5 7b 95 be 10 d4 59 bd ae 52 97 bd
       -0.5595869 -0.2919599 -0.053180754 -0.07388817
0000d0 bd df 94 be 51 61 dd bc 5a 66 51 be be be 2e be
       -0.2907695 -0.027023943 -0.204492 -0.1706495
0000e0 f9 f2 95 3e ba 08 f7 3e c7 f1 44 be 49 79 e7 3d
       0.29286936 0.48248845 -0.19232856 0.1130243
0000f0 3a 16 24 be 70 a8 35 3d 0b 6b d4 be 77 a9 0c bd
       -0.16024104 0.044350088 -0.41487917 -0.0343413
000100 f5 9a ae bd 33 c1 b4 3d d3 c0 59 3d 1e 3b 3f bd
       -0.085256495 0.08825912 0.053162407 -0.046687238
000110 51 18 01 be 1f e9 0e be 32 29 b0 bd ba 09 c7 bc
       -0.12606932 -0.13956116 -0.086016074 -0.02429663
000120 df e9 18 3d 78 0a db be 0f 91 6c 3d 88 30 1b be
       0.03733241 -0.42781425 0.057755526 -0.15155232
000130 fd 30 10 be a8 6c a3 3e 4c 4a d1 bd 69 c6 7f be
       -0.14081188 0.31918836 -0.10219249 -0.24978031
000140 70 1b e0 3e de f2 f8 bd 42 72 c0 3b 97 2d 0b bd
       0.43770933 -0.12155698 0.0058729956 -0.033979025
000150 24 17 81 be f6 57 98 be 2d c8 d7 3d a1 9a 6f be
       -0.25212967 -0.2975461 0.105362274 -0.2339883
000160 cf cc 83 be 36 e0 9f bd 93 f3 12 be c4 2f 06 be
       -0.25742194 -0.07806437 -0.14350729 -0.13104159
000170 de ce c3 3e 1f d5 b7 bc ca bf 2a be 46 9a 30 3e
       0.38243765 -0.022440491 -0.16674724 0.1724635
000180 03 81 ae bd 95 75 b0 be b3 e1 e7 bd 00 90 1e 3c
       -0.08520701 -0.34464708 -0.113223456 0.009677887
000190 28 b2 2f 3e c7 b5 35 be 92 ed a9 bc da 08 af be
       0.17157805 -0.17745124 -0.020743165 -0.3418644
0001a0 e2 af c6 3e ff 1c ec bd 8a 74 fc bd 77 dd ba be
       0.38806063 -0.11528968 -0.123269156 -0.3649709
0001b0 3f c8 51 be 3f d9 d5 bd b3 bd 57 3c be aa 8a be
       -0.20486544 -0.10441827 0.013167786 -0.2708339
0001c0 36 4f 88 bd 00 cd 70 3d 0c a8 00 bf 35 6c 06 3e
       -0.06655733 0.058789253 -0.5025642 0.13127215
0001d0 c9 80 47 be 64 46 e9 bd 75 66 42 3e b6 93 da be
       -0.19482721 -0.11390379 0.18984397 -0.4269082
0001e0 a9 01 3c bd c8 7e 0c bd 45 45 c1 3c af 96 96 be
       -0.04590002 -0.034300596 0.0235926 -0.29411837
0001f0 93 08 70 be c5 f8 f1 bd f6 d0 1e bd 82 22 45 3e
       -0.23440771 -0.11815027 -0.0387735 0.19251445

arc.2.weight f4 [64, 128]
000000 4f ee f3 bf 93 39 5d 3d 67 98 4d c0 3a 14 b2 3e
       -1.9057101 0.054009985 -3.212427 0.34781057
000010 0d df 58 bd ec ee 04 bd eb 35 ab bf b9 b1 1e bf
       -0.052947093 -0.032454416 -1.337583 -0.61989933
000020 fc 24 d3 be d7 7b a2 be 83 19 2e be 8e 5a b0 bd
       -0.41239154 -0.31735107 -0.1700192 -0.08611022
000030 b5 94 50 3f 08 18 15 be bc 56 7f bd f9 7d 18 3f
       0.8147691 -0.14559948 -0.062338576 0.5956722
000040 36 8d 20 be 63 8b d6 bf ba fe 05 bf 79 90 e4 be
       -0.15678868 -1.6761287 -0.52341807 -0.44641474
000050 17 49 6c 3e e3 47 cd 3d de 8a bd bd d4 d2 88 bf
       0.23074757 0.10023477 -0.092550024 -1.068934
000060 57 81 ca 3c b4 c9 8b bf e3 1a 14 bb 93 b6 64 3f
       0.024719877 -1.092093 -0.0022599034 0.89341086
000070 6d 37 18 bf 55 10 55 3e 56 c8 4b bd 8d a5 c6 bf
       -0.59459573 0.20807011 -0.049751602 -1.5519272
000080 76 dc b3 3f c2 06 f6 bf e5 31 08 bd 8b 2a 91 bf
       1.4051654 -1.9220812 -0.033250708 -1.1341108
000090 1f 38 f3 be 5b df 06 bd b1 8a 1e 3e 09 34 88 bc
       -0.47503754 -0.032927852 0.15482594 -0.016626375
0000a0 7d e7 79 bf 8a ed ca bd ff e2 76 bd 07 64 b7 be
       -0.9761885 -0.09908588 -0.060275074 -0.35818502
0000b0 3a 51 c3 bd be ce 2e be c5 c7 29 3c 76 fa af 3e
       -0.09536977 -0.17071053 0.01036257 0.34370774
0000c0 94 bf 22 bf 6d 05 ae bd 70 6d a5 be aa ca b3 bf
       -0.63573575 -0.08497129 -0.32310057 -1.4046223
0000d0 32 8b b4 bf 5b 50 65 be bd d8 0a bf 57 87 ce bd
       -1.4104979 -0.22393934 -0.54236966 -0.10084408
0000e0 05 68 d0 bf 42 8c 8f be 32 96 db 3e ab e7 88 bf
       -1.6281744 -0.28036696 0.42888027 -1.06957
0000f0 86 d3 ba be e1 24 28 bd 87 58 13 c0 45 a9 bc 3c
       -0.36489505 -0.041050795 -2.3022783 0.023029933
000100 a5 d8 92 3c b5 e9 98 3e de dd ab bf 8f 3d f7 be
       0.01792557 0.29865804 -1.3427083 -0.48289153
000110 5c 8d b1 3e b2 77 90 bd d2 bc c5 bd 59 4d 1f c0
       0.3467816 -0.0705408 -0.09655155 -2.489096
000120 78 9d ab 3f 8f 45 4d bd 4e b4 ab bf dd cf 9b 3d
       1.3407431 -0.050115164 -1.34144 0.07608006
000130 64 41 16 3c 5c 18 5a 3f 66 ca 97 be fc 19 21 bf
       0.009170864 0.8519342 -0.29646605 -0.62930274
000140 84 29 d5 bf f8 39 91 bd b2 f3 2c bb 66 44 96 3d
       -1.6653295 -0.07091135 -0.002639037 0.07337265
000150 48 37 ab be 7d 70 e8 bf 64 19 e7 bf d3 a7 ac be
       -0.33440614 -1.8159329 -1.8054624 -0.3372179
000160 64 5b 7b 3f 67 8e 26 3e 5e 40 53 be 67 20 ae bd
       0.98186326 0.1626526 -0.20630023 -0.08502274
000170 fc 4a 75 be a5 2e 86 bf 5c c1 33 3d 18 5d 34 c0
       -0.23954386 -1.0482985 0.043885574 -2.818182
000180 4a 40 8e bf fd 8c 96 3f 42 46 98 3f 24 49 b5 3c
       -1.111337 1.1761776 1.1896441 0.022129603
000190 88 d7 b6 bf 1c fe 83 bf eb fd f4 3c fd 93 b0 be
       -1.4284525 -1.0311923 0.029906234 -0.34487906
0001a0 0f 1a 21 c0 34 10 e4 be 87 19 45 bd 99 86 70 bf
       -2.5172155 -0.44543612 -0.048120048 -0.9395538
0001b0 f3 be c8 bd 54 de df bd 01 36 6c 3c b2 09 6d bf
       -0.09802046 -0.109310776 0.014417172 -0.9259292
0001c0 03 5c f3 bc 37 0e b5 bd 05 9b 51 bf 3e 1e 18 c0
       -0.02970696 -0.08840602 -0.81877166 -2.3768458
0001d0 ce c1 13 bf 26 8c 41 bc 2e 02 57 bf c4 ea 62 be
       -0.577176 -0.011813199 -0.839877 -0.22159868
0001e0 8a 6c 57 bc f7 71 02 bf 95 fc 08 be 06 65 08 bf
       -0.013148436 -0.50955147 -0.13377602 -0.5327915
0001f0 34 16 68 bc d8 51 af bf 15 0b 8a be 77 e1 2e 3f
       -0.01416545 -1.3696852 -0.2696158 0.6831278
000200 78 9c 17 3c 21 b4 c7 bd 42 aa 5d 3f f7 40 0b bf
       0.009253614 -0.09751154 0.8658792 -0.54396003
000210 28 38 72 3b 03 3c d0 3b aa a2 b1 bd c4 c1 86 bc
       0.0036959741 0.00635481 -0.08673604 -0.016449817
000220 03 72 db bd 84 04 09 3d 7f da 87 bd 3d 6d 92 3d
       -0.107151054 0.033451572 -0.06633472 0.07149742
000230 cb ed 39 bf 8b 68 81 be 55 01 1d 3d 40 83 45 be
       -0.7262847 -0.25275072 0.03833135 -0.19288349
000240 5d cc dc bd 5d 9e 3f bc b6 e4 ca be 9c f7 bb be
       -0.10781167 -0.011695472 -0.39627618 -0.36712348
000250 5d f2 33 bc 29 63 ee bc a6 74 38 bf ae e3 26 3e
       -0.010983077 -0.029100018 -0.7205299 0.1629779
000260 82 de 16 3e 67 1c 95 be 6e 97 80 bd bc 87 b3 bf
       0.14733317 -0.29123232 -0.06278883 -1.4025798
000270 83 23 98 bd e5 50 1d be da 8c cb bd 7d 3d 90 be
       -0.07428648 -0.1536289 -0.09938975 -0.28171912
000280 68 a6 0c bf 47 1d 9d be b4 fa 7a 3d ab 52 fd bf
       -0.54941416 -0.306864 0.061274245 -1.9790853
000290 bd 3a b1 be 67 80 6a 3d 37 1b ac be 24 b4 9b bd
       -0.34615126 0.05725136 -0.33614513 -0.076027185
0002a0 3b ab 23 bf 85 f9 b4 bd 6b 50 bd 3d 57 02 d6 bf
       -0.6393315 -0.088366546 0.09243854 -1.6719464
0002b0 36 aa e6 bd eb ea 08 bf f5 f4 00 be 82 0c e0 bf
       -0.11262934 -0.53483456 -0.12593444 -1.7503817
0002c0 90 23 eb 3d a9 b5 fe bd 0f 60 d8 bd a8 23 08 bf
       0.114813924 -0.12436993 -0.10565197 -0.5317941
0002d0 9e 7d a7 3e 60 35 5c bd 9a 19 18 3d 85 ed df bf
       0.32713026 -0.05376184 0.03713379 -1.749436
0002e0 c5 1c 80 bf 6a 45 d6 bf 38 50 c2 bf c1 d3 47 bf
       -1.000878 -1.6739933 -1.5180731 -0.78057486
0002f0 b3 10 67 3f 88 e2 6e bd c9 55 4d bf 06 e0 b3 bc
       0.90259856 -0.058321506 -0.8020902 -0.021957409
000300 c3 ea f1 3d b5 0e a1 bf 93 45 cb 3e f7 b5 33 be
       0.11812355 -1.2582613 0.39701518 -0.17549883
000310 69 a1 26 be 06 b5 7c bd fb b2 0a 3d 5b 9c 04 bf
       -0.1627251 -0.061696075 0.033862095 -0.5180108
000320 9a 66 ca bf a8 de 91 3e 40 e6 67 be 09 69 9d bd
       -1.5812562 0.28490186 -0.22646427 -0.076860495
000330 3e 0c 64 3d cf 75 57 be f4 a8 5a 3d 9c 67 c9 bd
       0.055675738 -0.21041034 0.053383783 -0.09834215
000340 c9 1d c3 3a 74 9c dd 3c 5c ee 66 bd 09 90 46 3d
       0.0014886196 0.027052142 -0.05637966 0.048477206
000350 dd cf 34 3d 05 77 bc 3e 96 80 96 bf 74 b8 a9 bd
       0.044143546 0.36809555 -1.1757991 -0.08287135
000360 be a8 82 3b 16 f1 87 bf ff df 41 3d 69 d4 d3 39
       0.003987401 -1.0620449 0.04733276 0.00040403314
000370 5f c7 90 bf dd 45 2c bf b9 1c 0b be 94 6f 05 bf
       -1.1310843 -0.672941 -0.13585176 -0.5212338
000380 42 5b d8 be d9 3e 01 be 22 85 9b bf 07 26 c0 3d
       -0.42257124 -0.1262163 -1.2150004 0.09382253
000390 13 c5 d4 bf 2b 53 71 be 9d 41 55 3c 82 2e ca 3d
       -1.6622642 -0.23566882 0.013016132 0.09872152
0003a0 97 11 fa be 43 5c e5 bd 27 ea a5 3c bc 53 88 bd
       -0.48841545 -0.11199238 0.020253254 -0.06656596
0003b0 c2 d1 56 3d 23 07 63 3c 8d 25 f3 bd eb af 64 bf
       0.052446134 0.013856682 -0.118723966 -0.8933093
0003c0 02 3c a1 bc 7b 82 ea be 1f 4d fd bd 99 bb 3b be
       -0.019681934 -0.45802674 -0.12368225 -0.18333282
0003d0 91 f4 9a bf 7e a5 86 3c 69 65 14 3d 52 47 75 3d
       -1.2105886 0.016436335 0.036229525 0.05988247
0003e0 f0 25 03 bd f0 d8 70 bd f4 7e 9d 3b 16 a8 19 bd
       -0.032018602 -0.058800638 0.0048063938 -0.037513815
0003f0 35 ca e3 3c db 41 33 bd 89 c6 74 bd 08 5e 17 c0
       0.02780638 -0.043763977 -0.05975965 -2.3651142

arc.2.bias f4 [64]
000000 9f 45 4e 3f 13 37 85 3f 3a ef 71 3e ab 8e 55 be
       0.80574983 1.0407432 0.23626414 -0.20855205
000010 0f 0e dc bd a9 d1 2d 3f 55 be b9 40 94 a6 8b 3f
       -0.10744869 0.6789804 5.804484 1.0910211
000020 aa e2 13 be bd 92 36 3f a7 34 f3 bd 40 bb 91 3f
       -0.14441934 0.71317655 -0.11875277 1.1385269
000030 02 67 13 be d3 fe 41 bf 09 ef ec bc a1 f1 9d 3e
       -0.14394763 -0.75779456 -0.028922575 0.3084841
000040 89 21 99 bf ff 7d 84 3f b8 21 43 3e cb f1 10 be
       -1.1963359 1.0350951 0.19055831 -0.14154737
000050 c5 50 b9 3e 84 bb bd 3e 77 cd b5 be 40 08 bf bf
       0.36194435 0.37057126 -0.3550832 -1.4924393
000060 0b 1b dc 3e 0f b0 d0 be df 48 f3 3e 61 ce b4 bd
       0.42989382 -0.40759322 0.47516534 -0.08828426
000070 87 33 9f bd cc 48 24 40 b5 c0 de be b2 83 ab 3e
       -0.077735 2.5669432 -0.435064 0.33498913
000080 e3 8d 69 3f ea 81 a8 be 1b 70 4a bd df c0 cf 3e
       0.91232127 -0.32911617 -0.04942332 0.40576836
000090 3e 5d 2e bf 89 e6 be be c9 6a dc 3e 9c ed 84 3f
       -0.68111026 -0.3728526 0.4305022 1.0385013
0000a0 9d a5 02 bf b8 49 22 bf 24 ab d4 3f 45 4a 51 be
       -0.51033956 -0.63393736 1.6614728 -0.20438488
0000b0 d3 83 ad 3e 32 7f d3 3e fd ad c4 3f 8d 05 89 3f
       0.33889636 0.4130798 1.5365597 1.0704819
0000c0 c8 46 08 be e6 24 bc bd d2 20 d7 3d 3a d7 57 3f
       -0.13308251 -0.09186725 0.10504307 0.84312785
0000d0 d6 7d a8 be 04 9a 2c be 4a 23 5e 3f 30 b5 73 3e
       -0.32908505 -0.16855627 0.86772597 0.23799586
0000e0 3b 26 a3 3f 6e 17 c1 be 10 57 16 bf 62 af b8 3f
       1.2746042 -0.37713188 -0.58726597 1.4428523
0000f0 11 98 1f 3f 71 91 d8 be a8 7a 36 3f 9b 83 58 bf
       0.6234141 -0.42298463 0.7128091 -0.84575814
