heuristic_model.pt (torch, 75040 bytes, 14 tensors)

arc_list.Linear_1.weight f4 [128, 56]
000000 13 42 4c c0 c1 bb 88 3e e2 98 a1 3f 97 a8 06 bf
       -3.1915329 0.26705745 1.2624781 -0.52601
000010 33 7b 41 3e c4 2f d9 3e 37 03 f2 be 26 01 c3 3f
       0.18894653 0.42419255 -0.47268078 1.5234725
000020 62 e4 09 c0 d8 e9 46 3e 4e 89 86 3f c6 93 53 bf
       -2.1545644 0.19425142 1.0510652 -0.8264736
000030 4a ea 21 c0 9b 89 a0 c0 b9 1f 9c bf bf 24 09 bf
       -2.5299249 -5.0167975 -1.2197181 -0.53571695
000040 35 6a 50 c0 a4 89 9a 3e 5c e1 cb 3e a8 3e 6f 3f
       -3.2564824 0.30183136 0.39820373 0.9345498
000050 28 0e 0c bf ec a2 b0 bf 43 ef 8e be 33 55 07 bf
       -0.547091 -1.379972 -0.27916917 -0.5286438
000060 48 34 20 c0 73 ce 5e bf e5 fd 00 bf eb ff a0 bf
       -2.503191 -0.87033767 -0.5038741 -1.25781
000070 c7 da 22 c0 ee ce 94 bf fb 11 01 be f1 ae 83 c0
       -2.544603 -1.162565 -0.12604515 -4.115105
000080 46 80 9d c0 42 b7 4a 3d ca da e3 bf 2b 6c d6 3f
       -4.9219084 0.049491175 -1.7801144 1.675176
000090 c0 3c 03 c1 4b ad ac bf 88 99 9a c0 11 65 ad bf
       -8.202332 -1.3490385 -4.8312416 -1.3546468
0000a0 86 0e 1f bd b9 0d 22 c0 1b fc 0d be 90 45 bf 3e
       -0.03883221 -2.5320876 -0.13865702 0.3735776
0000b0 14 e0 8c 3e d2 e7 ff 3e 67 92 18 3e 16 30 71 3f
       0.27514708 0.49981552 0.14899598 0.94214
0000c0 91 da 5a be 9d 95 a8 3e 08 0b a0 3e 1e 31 64 be
       -0.21372439 0.32926646 0.31258416 -0.22284362
0000d0 89 d9 0b bd 21 03 fc be c2 ee a9 3e 97 a2 36 3f
       -0.034143005 -0.49221137 0.3318997 0.7134184
0000e0 4d 50 25 be cf b9 9f bd 2b 82 c5 bd 39 fd 0b be
       -0.16143914 -0.07799112 -0.09643968 -0.13670816
0000f0 25 ef ee bd cd c4 80 be 63 ad 54 be bb 96 35 be
       -0.11666707 -0.25150147 -0.20769267 -0.1773328
000100 06 7b 77 be 27 17 0a be 08 5f a5 bd 33 c1 4b be
       -0.24168023 -0.13485394 -0.080747664 -0.19897918
000110 45 c7 78 bd 0a 15 41 be f1 f7 9a bd 1f a1 65 3e
       -0.060736913 -0.18855682 -0.07566822 0.22424744
000120 46 52 8c be fb 3b 10 3c 52 09 25 be a8 d5 0b be
       -0.2740652 0.008803363 -0.16116837 -0.13655722
000130 77 82 52 be d1 78 d1 bd 4a db 12 3d 2e 23 13 3d
       -0.20557581 -0.10228122 0.03585366 0.03592222
000140 71 76 12 bd ea 07 23 be 88 7a 71 bd 35 75 52 be
       -0.035757486 -0.15920988 -0.058954746 -0.20552523
000150 a0 7e 2c be 43 cc 57 bd ce 32 dd be 8d 60 e6 bd
       -0.16845179 -0.052685034 -0.43202823 -0.11248884
000160 75 e2 bb be 32 4d 22 be 8a b0 d8 bd 18 b7 26 3a
       -0.3669621 -0.1584976 -0.10580547 0.00063596806
000170 de be dc bd 40 31 1d bf c3 ab b1 3b 6a 5b 00 bf
       -0.107785925 -0.61403275 0.005422087 -0.50139487
000180 40 a4 d0 be ec c4 c6 be 33 62 18 bd c0 ef 7a 3c
       -0.40750313 -0.38822114 -0.037203025 0.01531595
000190 02 67 9a be f5 a5 9a 3d ee 5d 32 be 8d 55 06 bd
       -0.30156714 0.07551185 -0.17418644 -0.03279643
0001a0 c8 af ce 3d d9 e0 73 be 95 35 a9 bd b7 5c ca 3c
       0.10092121 -0.23816241 -0.08262173 0.024702413
0001b0 57 c3 e4 bb 69 9e 9c bc 7d b0 05 3d d4 ad ea be
       -0.006981294 -0.019118505 0.032639015 -0.45835745
0001c0 d9 33 6a bf 8f c8 2c c0 bf b2 3a bf 01 51 b2 3e
       -0.91485363 -2.6997411 -0.72928995 0.34827426
0001d0 e0 32 2f bf 83 b4 86 3e 8b a0 f0 be 82 79 5a be
       -0.68437004 0.26309595 -0.46997485 -0.21335414
0001e0 6f 32 80 3e 57 db 51 be e4 72 82 3f 7d b5 0c c0
       0.25038478 -0.20493828 1.0191312 -2.1985772
0001f0 40 2e 74 be 55 65 38 3f 06 51 15 3f 50 e7 32 3f
       -0.23845768 0.7202962 0.58326757 0.69884205
000200 88 d5 44 bf e6 fc d6 3c e4 1e 09 bf 8b 7f 0a 3f
       -0.7688832 0.026243638 -0.5356276 0.54100865
000210 e3 7d b9 be 54 12 8e 3f 55 d6 de 3d 74 da a8 bf
       -0.36228856 1.1099343 0.10880724 -1.3191667
000220 a5 31 81 3f 8d cf 9a be f9 1b 22 bf 9d 29 8b 3f
       1.0093275 -0.30236474 -0.6332393 1.0872074
000230 72 80 92 3e 91 bb 3d 3f 79 f0 89 3f f0 44 e7 3e
       0.2861362 0.7411433 1.0776511 0.45169783
000240 c4 af 26 3f 8d f4 29 bb 39 1f e0 3d f7 5b 2a bf
       0.6511195 -0.0025933117 0.10943455 -0.6654658
000250 b5 dd 93 c0 86 cf 0e 3e 5b 02 f3 3d 35 2c 6e 3f
       -4.620814 0.13946351 0.11865684 0.93036205
000260 65 ad 99 3e cc 3f 83 be 76 f0 b3 3d 4d e3 c0 3e
       0.30015102 -0.2563461 0.08786099 0.37673417
000270 dc 9d 16 3f dc 7b 31 3f 86 58 82 bd 2d b9 88 3f
       0.58834624 0.6932962 -0.06364541 1.0681511
000280 dc c3 95 3f b2 ce 8e 3e e0 f9 62 bc 06 ec b2 bf
       1.1700397 0.2789207 -0.01385352 -1.3978279
000290 a6 1a 73 bf 9d b9 ad 3e 3f 10 5b 3f 0c bc 9a 3f
       -0.9496254 0.33930674 0.85571665 1.2088637
0002a0 6a a2 a4 bf fa 8c 58 bf 09 02 17 bf 9f 7d b5 bf
       -1.2862065 -0.84590113 -0.5898748 -1.4178962
0002b0 6c 93 94 3d 4a 5d 97 bf 9c f5 fd 3e 3a 78 46 3f
       0.07254681 -1.1825345 0.49601448 0.775272
0002c0 23 47 8a 3f 54 68 bc bf a8 e7 2a 3d a8 06 ef be
       1.0802959 -1.4719338 0.04172483 -0.46684766
0002d0 3e de 70 bf 7f ce 39 bd 08 aa 89 3f 45 53 dc 3e
       -0.94089115 -0.045362946 1.0755014 0.4303228
0002e0 7d 01 f5 bc 3b 2d 21 bf 89 af 29 3f 94 b2 fe be
       -0.029907936 -0.6295964 0.6628347 -0.4974562
0002f0 f6 8c c2 bf c3 fa 56 bf bc a2 ad be 39 19 01 bf
       -1.5199268 -0.8397638 -0.3391322 -0.5042911
000300 9b 61 7f bf 7f 19 31 3f 92 f0 79 3e ef f4 c0 be
       -0.9975831 0.6917953 0.24408177 -0.3768687
000310 0f 6a d3 3c 12 32 d2 3e 13 77 5f 3d f7 b3 b6 3f
       0.025807409 0.41053826 0.054556917 1.4273671
000320 e8 9e 7d be 5c 6e e7 be 12 93 c7 3f d4 77 05 be
       -0.24767649 -0.45201385 1.5591757 -0.13033992
000330 60 f1 17 c0 6d df ae bd 03 e3 a9 be 86 25 a6 3e
       -2.3741074 -0.08538709 -0.3318101 0.32450503
000340 ea a1 ac bf 8a e3 1d 3c a2 57 42 3c bd db 8b be
       -1.3486912 0.009636769 0.011861714 -0.27316085
000350 05 20 36 bf 8d 05 1b 3f 70 58 89 3e 8c 75 92 3e
       -0.7114261 0.60555345 0.26825285 0.28605306
000360 4a c3 7f 3e fb 3a d8 be be 92 90 be d0 27 05 3f
       0.2497684 -0.422325 -0.28236955 0.52013874
000370 95 b1 1b 3c 26 48 7d be 33 83 5c be b5 a4 3f 3f
       0.009502788 -0.24734554 -0.21534424 0.748607
000380 3d 00 d1 be 16 49 ad bf 3f 18 1a bf 13 fb 58 bf
       -0.40820494 -1.3537929 -0.60193247 -0.8475811
000390 f4 4d 26 bf f0 1e 17 bf ff 90 24 c0 90 9c 0f 3f
       -0.649627 -0.5903158 -2.5713499 0.5609827
0003a0 bf 5f 3a c0 52 f4 9e be 60 db d6 bf d1 8a be be
       -2.9120939 -0.31045777 -1.6785698 -0.37215284
0003b0 49 e1 9e 3e 38 68 e7 bf 9b 18 1c c0 9e 24 7c 3f
       0.31031254 -1.807868 -2.4390018 0.98493373
0003c0 09 ca 4c c0 9d 44 c5 3e 9d ee 1f bf 08 0f ea 3d
       -3.1998312 0.3852891 -0.6247347 0.11428648
0003d0 27 9f a1 be c1 2c a2 bf 6a f9 42 3f 2a 91 c1 3e
       -0.31566736 -1.2669908 0.76161826 0.37806064
0003e0 07 9f 45 bf b9 bd 22 3e 98 8e 9d be 51 c9 4f 3f
       -0.7719578 0.15892686 -0.30772853 0.8116656
0003f0 ad 54 aa bf db 74 6c bf 26 44 1f c0 a4 61 01 c0
       -1.3307091 -0.9236581 -2.4885345 -2.0215845

arc_list.Linear_1.bias f4 [128]
000000 ce af 4d bd fb c2 82 be 42 1e 90 3e 0d 6f 5a be
       -0.05021649 -0.25539383 0.28148085 -0.21331425
000010 6b bb 15 3d 0d 3a ba be a6 f0 a4 be 8b fb 4a 3e
       0.03655569 -0.36372414 -0.3221485 0.19822519
000020 80 1a 4d be 61 67 84 be a4 b9 4e be 33 97 81 be
       -0.2002964 -0.25860122 -0.20188004 -0.25310668
000030 d6 d6 a7 bc b6 0b c1 bd f5 b4 62 be af 8c 61 be
       -0.020488184 -0.09426062 -0.22139342 -0.22026323
000040 33 32 36 3c d9 af 83 be 54 ba 32 be 40 a0 8e 3d
       0.011120367 -0.257201 -0.17453891 0.06964159
000050 0f 2f 40 3e e3 42 d0 3d 51 7c dd bd b2 85 65 be
       0.18767951 0.10169008 -0.10814727 -0.22414282
000060 d2 09 0f be 7a b0 40 3d 73 af 17 bd 4d d5 73 bd
       -0.1396859 0.0470433 -0.037032556 -0.05952959
000070 f6 67 01 3c 9f 53 8c bd c9 62 b3 bd d5 c8 94 be
       0.007898321 -0.06851887 -0.08759076 -0.29059473
000080 70 1c 6c 3e d0 84 90 be 22 ee d9 3c e1 f6 34 3d
       0.23057723 -0.28226328 0.026602808 0.044180755
000090 e1 a5 81 3e 73 76 e7 be 47 79 b3 be 60 2f 19 bf
       0.25321868 -0.45207557 -0.35053465 -0.59837914
0000a0 57 d1 4a be df b3 df bd 27 ee 19 be 0d 5b ad be
       -0.1980642 -0.109229796 -0.15032254 -0.3385853
0000b0 d6 20 24 3d 62 61 98 be 78 27 9e bd b1 d0 8c bd
       0.040070377 -0.29761797 -0.07722372 -0.06875742
0000c0 44 f0 c8 be 93 48 12 be be a1 d5 bd 9f b2 63 bb
       -0.39245808 -0.14285497 -0.104312405 -0.0034743918
0000d0 bd df 94 be 1f cf 9e bd f0 c2 55 bd f3 9f 6c be
       -0.2907695 -0.07754349 -0.05218786 -0.23107891
0000e0 ca 45 ed 3e 36 c1 c6 3e a0 7d b4 be 29 2f 29 3e
       0.46342307 0.38819283 -0.35252094 0.16521896
0000f0 c0 2c b4 be 70 a8 35 3d 10 33 01 bf 77 a9 0c bd
       -0.35190392 0.044350088 -0.5046854 -0.0343413
000100 f5 9a ae bd 93 79 16 be 53 bd 8e 3c 9e 63 18 be
       -0.085256495 -0.14694814 0.017424261 -0.14881751
000110 0b ff 34 be 1f e9 0e be 24 a2 12 be 39 6a d7 bd
       -0.17675416 -0.13956116 -0.14319664 -0.10518307
000120 29 76 8a 3d 3f 9c ea be e5 ca 63 3e 88 30 1b be
       0.067608185 -0.4582233 0.22245367 -0.15155232
000130 fd 30 10 be 1b 53 bd 3e 4c 4a d1 bd 69 c6 7f be
       -0.14081188 0.36977467 -0.10219249 -0.24978031
000140 df 6f cc 3e de f2 f8 bd 90 f1 45 bd 97 2d 0b bd
       0.399291 -0.12155698 -0.048326075 -0.033979025
000150 f4 4e 9c be f6 57 98 be de e9 1d 3e a1 9a 6f be
       -0.30528986 -0.2975461 0.15421245 -0.2339883
000160 38 a1 e9 3c b0 81 d3 3c 94 72 71 be c4 2f 06 be
       0.028519258 0.025818676 -0.23578864 -0.13104159
000170 50 44 2b 3f 32 c8 ad be ca bf 2a be 3c d7 73 3d
       0.6690111 -0.339418 -0.16674724 0.059531435
000180 1f e1 4b bc 58 d5 d8 be e8 b2 3e be 00 90 1e 3c
       -0.01244381 -0.42350268 -0.18622935 0.009677887
000190 c9 54 f7 3d c7 b5 35 be 92 ed a9 bc da 08 af be
       0.12076718 -0.17745124 -0.020743165 -0.3418644
0001a0 b0 71 0c 3f 00 b6 5b bd 8a 74 fc bd 77 dd ba be
       0.54860973 -0.053640366 -0.123269156 -0.3649709
0001b0 3f c8 51 be 97 48 89 bd b3 bd 57 3c 03 59 c2 be
       -0.20486544 -0.067032985 0.013167786 -0.37958536
0001c0 36 4f 88 bd db a8 2c 3e 0c a8 00 bf 4f 96 d8 3d
       -0.06655733 0.16861288 -0.5025642 0.10575544
0001d0 dd 53 7d be 64 46 e9 bd e7 e8 0a 3e b6 93 da be
       -0.24739023 -0.11390379 0.13565408 -0.4269082
0001e0 a9 01 3c bd d6 f3 cc bd 45 45 c1 3c eb 50 1b bf
       -0.04590002 -0.100074455 0.0235926 -0.60670346
0001f0 93 08 70 be 88 18 1e bf 07 87 db bd 7c ee da 3e
       -0.23440771 -0.6175618 -0.10719114 0.42760074

arc_list.Linear_2.weight f4 [64, 128]
000000 66 ba d4 bf 93 39 5d 3d 6d 19 61 c0 3b ff 65 bf
       -1.6619384 0.054009985 -3.5171769 -0.89842576
000010 0d df 58 bd ec ee 04 bd eb 35 ab bf b9 b1 1e bf
       -0.052947093 -0.032454416 -1.337583 -0.61989933
000020 fc 24 d3 be d7 7b a2 be d4 0b ec bd 35 dc 7d 3d
       -0.41239154 -0.31735107 -0.115256935 0.061977584
000030 a1 2f 4c 3f 08 18 15 be 97 df fa be 85 89 6f 3f
       0.79760176 -0.14559948 -0.4899871 0.93569213
000040 5e 1c c6 bd 63 8b d6 bf ba fe 05 bf 1c 6b 1f bf
       -0.09673379 -1.6761287 -0.52341807 -0.6227281
000050 60 54 46 3f 83 88 51 bf de 8a bd bd d4 d2 88 bf
       0.77472496 -0.81848925 -0.092550024 -1.068934
000060 57 81 ca 3c 84 e4 c1 bf e3 1a 14 bb 2d 9f 90 bf
       0.024719877 -1.5147862 -0.0022599034 -1.1298577
000070 6d 37 18 bf 33 9b de bd 56 c8 4b bd 03 ed b9 bf
       -0.59459573 -0.10869446 -0.049751602 -1.4525455
000080 0b f9 a9 3f 3e 3f 3a c0 e5 31 08 bd 6e 8c 16 c0
       1.3279127 -2.91011 -0.033250708 -2.3523211
000090 c0 6c d8 3e 5b df 06 bd b1 8a 1e 3e 09 34 88 bc
       0.4227047 -0.032927852 0.15482594 -0.016626375
0000a0 41 25 39 3e 8a ed ca bd ff e2 76 bd ae 44 04 bf
       0.18080617 -0.09908588 -0.060275074 -0.51667297
0000b0 3a 51 c3 bd be ce 2e be c5 c7 29 3c 4e 42 15 3e
       -0.09536977 -0.17071053 0.01036257 0.14576074
0000c0 94 bf 22 bf 90 51 cd be 70 6d a5 be 76 31 4f c0
       -0.63573575 -0.4010129 -0.32310057 -3.2373939
0000d0 32 8b b4 bf 5b 50 65 be 21 30 8b be 57 87 ce bd
       -1.4104979 -0.22393934 -0.27185157 -0.10084408
0000e0 64 27 be bf f5 17 71 3d 19 57 c1 3e 11 3a 1e c0
       -1.4855771 0.058860738 0.37761763 -2.472294
0000f0 dd 5a 77 bf e1 24 28 bd 87 58 13 c0 45 a9 bc 3c
       -0.9662302 -0.041050795 -2.3022783 0.023029933
000100 a5 d8 92 3c f0 41 5b 3e 81 05 8b bf 8f 3d f7 be
       0.01792557 0.21411872 -1.0861055 -0.48289153
000110 5c 8d b1 3e b2 77 90 bd d2 bc c5 bd 6e 24 41 c0
       0.3467816 -0.0705408 -0.09655155 -3.0178485
000120 b2 2c c9 3f 8f 45 4d bd 43 ed fd bf dd cf 9b 3d
       1.5716765 -0.050115164 -1.9838032 0.07608006
000130 64 41 16 3c 3c fd 6b 3f 66 ca 97 be fc 19 21 bf
       0.009170864 0.9218328 -0.29646605 -0.62930274
000140 f9 a4 59 bf f8 39 91 bd b2 f3 2c bb 66 44 96 3d
       -0.85017353 -0.07091135 -0.002639037 0.07337265
000150 48 37 ab be 7d 70 e8 bf 43 b4 f0 bf d3 a7 ac be
       -0.33440614 -1.8159329 -1.8805012 -0.3372179
000160 0d 54 89 3f 6e 2e 8f bf 5e 40 53 be 67 20 ae bd
       1.0728775 -1.1186044 -0.20630023 -0.08502274
000170 26 d2 d4 be 10 73 9f bf 5c c1 33 3d a9 84 1d c0
       -0.4156658 -1.2456989 0.043885574 -2.461222
000180 0d 97 bb bf fd 8c 96 3f b4 d6 3d 3f 24 49 b5 3c
       -1.4655472 1.1761776 0.74155736 0.022129603
000190 d9 5f ea bf 1c fe 83 bf eb fd f4 3c fd 93 b0 be
       -1.83105 -1.0311923 0.029906234 -0.34487906
0001a0 b1 a3 3b c0 34 10 e4 be 87 19 45 bd 99 86 70 bf
       -2.931866 -0.44543612 -0.048120048 -0.9395538
0001b0 f3 be c8 bd 95 e9 ac be 01 36 6c 3c b2 09 6d bf
       -0.09802046 -0.3377196 0.014417172 -0.9259292
0001c0 03 5c f3 bc 37 0e b5 bd 05 9b 51 bf fd cd 27 c0
       -0.02970696 -0.08840602 -0.81877166 -2.6219475
0001d0 57 25 35 bf 26 8c 41 bc 08 a6 66 bf c4 ea 62 be
       -0.707601 -0.011813199 -0.90097094 -0.22159868
0001e0 8a 6c 57 bc f7 71 02 bf 95 fc 08 be 06 65 08 bf
       -0.013148436 -0.50955147 -0.13377602 -0.5327915
0001f0 34 16 68 bc d8 51 af bf 15 0b 8a be 5f 2f 02 3f
       -0.01416545 -1.3696852 -0.2696158 0.5085353
000200 78 9c 17 3c 21 b4 c7 bd db 6d 91 3f b6 83 6f bd
       0.009253614 -0.09751154 1.136165 -0.05847522
000210 28 38 72 3b 03 3c d0 3b aa a2 b1 bd c4 c1 86 bc
       0.0036959741 0.00635481 -0.08673604 -0.016449817
000220 03 72 db bd 84 04 09 3d 7f da 87 bd 3d 6d 92 3d
       -0.107151054 0.033451572 -0.06633472 0.07149742
000230 cb ed 39 bf 8b 68 81 be 55 01 1d 3d 40 83 45 be
       -0.7262847 -0.25275072 0.03833135 -0.19288349
000240 5d cc dc bd 5d 9e 3f bc b6 e4 ca be 9c 24 98 bf
       -0.10781167 -0.011695472 -0.39627618 -1.1886172
000250 bf 52 57 3e 29 63 ee bc a6 74 38 bf ae e3 26 3e
       0.21027659 -0.029100018 -0.7205299 0.1629779
000260 82 de 16 3e b7 e5 d1 3e 6e 97 80 bd 2c 9c ee bf
       0.14733317 0.4099557 -0.06278883 -1.864141
000270 83 23 98 bd e5 50 1d be da 8c cb bd 7d 3d 90 be
       -0.07428648 -0.1536289 -0.09938975 -0.28171912
000280 18 a5 71 be 47 1d 9d be c2 eb b8 be 0c 94 9d bf
       -0.23598135 -0.306864 -0.3611737 -1.2310805
000290 70 f2 15 bf 67 80 6a 3d 37 1b ac be 24 b4 9b bd
       -0.58573055 0.05725136 -0.33614513 -0.076027185
0002a0 3b ab 23 bf 85 f9 b4 bd 6b 50 bd 3d 57 02 d6 bf
       -0.6393315 -0.088366546 0.09243854 -1.6719464
0002b0 36 aa e6 bd eb ea 08 bf f5 f4 00 be a0 71 2d c0
       -0.11262934 -0.53483456 -0.12593444 -2.7100601
0002c0 90 23 eb 3d a9 b5 fe bd 0f 60 d8 bd 0d 4b 50 bf
       0.114813924 -0.12436993 -0.10565197 -0.8136452
0002d0 9e 7d a7 3e 60 35 5c bd 9a 19 18 3d 85 ed df bf
       0.32713026 -0.05376184 0.03713379 -1.749436
0002e0 49 91 a2 bf fe d7 bf bf 38 50 c2 bf 80 2f a2 be
       -1.2700588 -1.498779 -1.5180731 -0.31676865
0002f0 1f 57 09 3f 88 e2 6e bd c9 55 4d bf 06 e0 b3 bc
       0.5364856 -0.058321506 -0.8020902 -0.021957409
000300 c3 ea f1 3d f2 1d ac bf e6 37 c9 3e f7 b5 33 be
       0.11812355 -1.3446639 0.3930046 -0.17549883
000310 69 a1 26 be 06 b5 7c bd fb b2 0a 3d c4 fb 64 bf
       -0.1627251 -0.061696075 0.033862095 -0.89446664
000320 5a 28 97 bf a8 de 91 3e e4 04 fb bf 09 69 9d bd
       -1.1809189 0.28490186 -1.9610868 -0.076860495
000330 3e 0c 64 3d 9f fa 63 3f f4 a8 5a 3d 9c 67 c9 bd
       0.055675738 0.8905429 0.053383783 -0.09834215
000340 d2 47 2a 3d 74 9c dd 3c 5c ee 66 bd 09 90 46 3d
       0.0415724 0.027052142 -0.05637966 0.048477206
000350 dd cf 34 3d 05 77 bc 3e ac 75 c2 bf 74 b8 a9 bd
       0.044143546 0.36809555 -1.5192161 -0.08287135
000360 be a8 82 3b e9 77 dd 3c ff df 41 3d 69 d4 d3 39
       0.003987401 0.027034717 0.04733276 0.00040403314
000370 0c 22 02 bf b7 e6 c5 bf b9 1c 0b be 7a 0c 12 bf
       -0.508332 -1.5461034 -0.13585176 -0.5705029
000380 21 4b 2b be 12 2c 3d 3d 76 06 4d bf 07 26 c0 3d
       -0.16727878 0.046184607 -0.80087984 0.09382253
000390 d5 32 20 c0 2b 53 71 be 9d 41 55 3c 82 2e ca 3d
       -2.5031025 -0.23566882 0.013016132 0.09872152
0003a0 fc ce 32 3e 43 5c e5 bd 27 ea a5 3c bc 53 88 bd
       0.17461771 -0.11199238 0.020253254 -0.06656596
0003b0 c2 d1 56 3d 23 07 63 3c 8d 25 f3 bd d8 e5 09 be
       0.052446134 0.013856682 -0.118723966 -0.13466585
0003c0 02 3c a1 bc f5 3f 13 3f 1f 4d fd bd ef 4d df 3e
       -0.019681934 0.57519466 -0.12368225 0.43614146
0003d0 e5 f8 8b bf 7e a5 86 3c 69 65 14 3d 52 47 75 3d
       -1.0935332 0.016436335 0.036229525 0.05988247
0003e0 f0 25 03 bd f0 d8 70 bd f4 7e 9d 3b 16 a8 19 bd
       -0.032018602 -0.058800638 0.0048063938 -0.037513815
0003f0 35 ca e3 3c db 41 33 bd 89 c6 74 bd 22 d3 e4 bf
       0.02780638 -0.043763977 -0.05975965 -1.7876933

arc_list.Linear_2.bias f4 [64]
000000 49 b3 9b 3e 8d ad a4 3e 78 e6 2c 3f b7 da 36 3e
       0.3041022 0.3216366 0.6753917 0.1785687
000010 0f 0e dc bd cc 1d 98 3f 98 b5 d8 40 88 6d c8 3f
       -0.10744869 1.1884093 6.772167 1.5658426
000020 01 75 81 be 9f 8b 10 40 0e 6b a2 be b3 e7 d6 3f
       -0.2528458 2.2585218 -0.317223 1.6789459
000030 90 22 3f bf 9a 11 8f bf 09 ef ec bc 84 fc 4e 3f
       -0.74662113 -1.1177247 -0.028922575 0.8085406
000040 2a 1c 9e bf d2 56 c9 3f af 8f 93 3e 5e 55 94 3e
       -1.2352345 1.572962 0.2882056 0.2897138
000050 6c 37 83 3f 24 57 01 be 77 cd b5 be 1e 17 eb bf
       1.0251288 -0.12630898 -0.3550832 -1.836643
000060 64 97 76 3e 95 a8 e3 be 3b 85 0f be df 21 a8 be
       0.24081188 -0.44464555 -0.14015667 -0.32838342
000070 87 33 9f bd 84 a7 c8 3f f3 b3 aa bf 2c 13 7b 3f
       -0.077735 1.5676122 -1.3336166 0.9807613
000080 2b 66 4f 40 79 da 20 bf 7e 36 e8 3d 57 c8 02 bf
       3.2406108 -0.6283336 0.113385186 -0.51086944
000090 46 be 92 bf 63 da db bf ce 76 a4 3e 1f a3 c3 3f
       -1.1464317 -1.7176021 0.3212189 1.5284156
0000a0 5e 5e 7a 3e e9 f5 11 3f 86 ee b8 3f 45 4a 51 be
       0.2445006 0.57015854 1.4447792 -0.20438488
0000b0 8f 6b f3 bd a8 09 88 bd 5e 08 3b 3f 53 21 e6 3f
       -0.118857495 -0.06642467 0.7305964 1.797892
0000c0 c8 46 08 be e6 24 bc bd ca 91 d5 3f 64 30 c1 3f
       -0.13308251 -0.09186725 1.6685116 1.5092893
0000d0 f5 01 07 bf 40 f9 9b 3e 3d 1d 4d 3f fc ef 2d bf
       -0.5273736 0.304636 0.8012274 -0.6794431
0000e0 de 0d fd 3f 4f c1 16 bf 10 57 16 bf ec cd 87 3e
       1.9769857 -0.58888716 -0.58726597 0.26524293
0000f0 1c 0b fb 3f 71 91 d8 be 9e ec 1d 3e 30 92 64 bf
       1.9612765 -0.42298463 0.15422294 -0.89285564

arc_list.Linear_3.weight f4 [32, 64]
000000 1a c2 3d 3f b2 42 9b 3e 00 5e 90 3f 2f 85 67 3d
       0.741243 0.30324322 1.1278687 0.0565235
000010 d5 77 fe 3d 3b 38 2d bf 0e d6 67 c0 6e 0a e1 3e
       0.124252 -0.67663926 -3.6224399 0.4395327
000020 83 97 a1 be 8b 7e a1 bf 64 62 6f 3d ee f6 05 3f
       -0.31560907 -1.2616743 0.058443442 0.5232991
000030 5f e1 f0 3e 0c e1 b3 3f d1 3c 1e bd 63 26 12 bf
       0.47046944 1.4053054 -0.038632218 -0.57089823
000040 81 46 87 bf c4 f9 9b 3e a0 44 5a 3f 64 60 25 3f
       -1.0568391 0.30463994 0.85260963 0.64600205
000050 64 95 0a bf 28 92 2b bf 16 52 c1 3e a1 39 be bf
       -0.541342 -0.6701989 0.3775794 -1.4861337
000060 9b 9c 54 bf 8e 97 62 3e 4d f4 f8 be 7d 0b 26 be
       -0.8305146 0.22128126 -0.48623887 -0.1621532
000070 df 5d 96 3d aa dc 84 3f 72 29 36 bc 5f a6 18 3e
       0.07342123 1.0379841 -0.01111828 0.14907216
000080 91 58 9b 3f 2d 61 69 3e 8f 1e 92 bf a5 c1 8b bf
       1.2136403 0.22790976 -1.1415576 -1.0918471
000090 85 0a 1f 3d 35 ab a2 bf 1b ce 3c bf bb 7e cc 3e
       0.03882839 -1.2708498 -0.7375199 0.39940438
0000a0 ee fc 90 bf bd 3c 45 bf f3 e2 8f 3f f1 74 ac 3d
       -1.1327188 -0.77045804 1.1241134 0.08420742
0000b0 83 18 cb be dc b0 57 bf e1 b6 34 bf 08 5e f6 3e
       -0.39667138 -0.8425424 -0.7059155 0.48118615
0000c0 97 a3 da 3d 03 53 48 bd dc e3 50 3f e8 1b c1 bf
       0.106757335 -0.04890729 0.81597686 -1.5086641
0000d0 f5 b1 b2 bd bf e5 bf bf cd 24 ac 3e 53 8d 39 bf
       -0.08725349 -1.4991988 0.33621827 -0.7248127
0000e0 d9 5e 0e bf a5 b1 4e 3e 5d 13 2f bd 90 42 36 3f
       -0.55613476 0.20184954 -0.042743076 0.71195316
0000f0 b8 4b 3d bf bb 32 f6 3c 45 be 9c bf 35 4b 77 3e
       -0.7394366 0.030053487 -1.2245566 0.24149783
000100 8f 6d 59 be 70 02 fb bd ad 13 5b bd b8 96 55 bd
       -0.212332 -0.12256324 -0.05348556 -0.05214569
000110 28 a7 3b bd b4 b1 9f 3d 20 db ac 3d 42 7c b0 be
       -0.04581371 0.07797566 0.08440232 -0.344698
000120 f6 98 c4 bd 2e 4c 6d be 60 5b cd bb e0 49 41 bf
       -0.095994875 -0.23173591 -0.0062669963 -0.7550335
000130 a3 84 b5 bd 8d 91 ba be 7c a6 1d 3d 28 94 11 bf
       -0.08863189 -0.3643917 0.03848885 -0.56866693
000140 5d 7b c2 be 04 70 d8 be 08 5b 1d be e0 29 ee bc
       -0.37984744 -0.4227296 -0.15366757 -0.029072702
000150 6e aa d9 be b2 a6 94 be 44 4c e9 bd f0 ec 5c 3e
       -0.4251284 -0.29033428 -0.113915 0.2157476
000160 13 6c 00 bf 44 c5 3f 3d 49 69 0e bf d4 07 4b 3d
       -0.5016491 0.046818987 -0.556294 0.049568012
000170 fc d0 e7 bd c2 13 89 be 60 3d b3 3d 2e 0d 26 bf
       -0.113191575 -0.26772887 0.08751941 -0.6486386
000180 92 38 e0 be 40 e6 f7 bd e7 4a 1a bf 51 e0 bd be
       -0.4379316 -0.121044636 -0.6027054 -0.37085202
000190 0f 16 a2 3e 24 e9 27 be cb a7 8d be 55 9a 12 bf
       0.31657454 -0.1639753 -0.27667078 -0.5726674
0001a0 09 51 09 3d 59 a8 b5 be 28 01 9d be 1a 52 db 3d
       0.033524547 -0.35480002 -0.30664945 0.10709019
0001b0 df 3b 07 bf 79 38 cb be 22 7b 91 be fb 92 1c bf
       -0.5282573 -0.39691523 -0.28414255 -0.61161774
0001c0 ac 8b 6f 3d c0 7c 40 bd d8 e8 d6 be d2 06 98 be
       0.05848281 -0.04699397 -0.4197452 -0.29692703
0001d0 fc 0b cc be 83 b3 89 be 0b bd e7 be b8 4c 77 be
       -0.39852893 -0.2689477 -0.45261416 -0.2415036
0001e0 72 0b f6 be b0 53 d9 bd c0 3f b7 bd 8d a5 cb bd
       -0.48055607 -0.10611665 -0.08947706 -0.09943686
0001f0 d2 d1 10 be 12 b1 e6 3d 98 c1 d4 bc 0e 00 e2 bd
       -0.1414254 0.11264242 -0.025971219 -0.11035167
000200 1a 44 06 3f 53 a2 77 bf eb 47 5a 3d 3a 6f 2f bd
       0.52447665 -0.9673206 0.053291243 -0.042830683
000210 9d 33 5b 3d 52 e4 68 be 0e cd ca bf 3e 2a ee be
       0.05351602 -0.22743347 -1.5843828 -0.46516603
000220 0a 25 2f 3e e7 98 b4 3d a7 73 9d 3d 87 a4 a5 be
       0.17103973 0.08818226 0.076880746 -0.32352087
000230 42 c5 ab b8 c2 32 11 be 50 d8 a2 3d aa dc ba be
       -8.1906575e-05 -0.14179519 0.079514146 -0.36496478
000240 3e 77 99 3d 0d a4 cc be 75 37 60 be e5 eb 1e bf
       0.07493447 -0.3996891 -0.21896155 -0.62078696
000250 bb 0c ca be 23 7c b0 be 7f 87 0c 3f 50 d6 bd bf
       -0.39462838 -0.3446971 0.5489425 -1.4831028
000260 77 ec 5e bd 23 f1 32 3e 5d d0 a1 be 25 bb 64 bd
       -0.05442473 0.17474799 -0.3160428 -0.055842537
000270 80 2b 2b bd 79 cf 94 bf 5a 07 f5 3d 5b e6 01 bf
       -0.04178953 -1.1625816 0.11964293 -0.5074212
000280 d7 dc 30 bf b4 15 b6 3e 89 b2 35 be 20 cc 1f 3f
       -0.69086975 0.35563433 -0.17743887 0.62420845
000290 38 c2 d8 bd 29 96 a2 be 73 bb da bd 90 db 08 bf
       -0.10583919 -0.31755188 -0.10680284 -0.53460026
0002a0 6c 53 c6 3c ce 6b fd 3c 53 be 3c be b4 88 01 3e
       0.0242097 0.030935194 -0.18431978 0.12649804
0002b0 19 11 b2 be 63 83 f0 3e 10 58 7d be 92 c7 05 bf
       -0.3477867 0.4697524 -0.24740624 -0.52257645
0002c0 18 7e f8 bd 2b 9d 17 3e 19 7e 0c bf bb eb d4 bd
       -0.121334255 0.14806049 -0.5487991 -0.103965245
0002d0 2c 4c 9c 3c 6e 1b 3f be ad 2c 2e bf 71 85 f1 bc
       0.01907929 -0.18662807 -0.6803692 -0.029482575
0002e0 ad a9 61 3e 08 a5 9c 3d 39 ab 07 3e 7e b9 7a be
       0.22037382 0.07648665 0.1324891 -0.24484822
0002f0 07 7d 6e 3d 4b 4d 0c 3e a5 f6 dd 3c be 19 ef 3d
       0.058224704 0.1370136 0.027095148 0.11674832
000300 ca f5 92 be 48 7b ab 3d 71 e1 d3 3c 8f 77 c1 3d
       -0.28703147 0.083731234 0.025864335 0.09446632
000310 9a 4a 49 3e 74 f9 49 be e7 1e a7 bc 78 ff 48 bd
       0.19657364 -0.19724065 -0.020400478 -0.04907176
000320 29 1b de 3d 0b 8e fe bd 3e 2b 52 bd 2c a3 c8 be
       0.10845024 -0.12429436 -0.05131077 -0.3918699
000330 de 23 c2 3d 8b 4b 6e bc 9a 80 81 3d 3c c2 5c bc
       0.094794974 -0.014544378 0.06323357 -0.013474043
000340 3c fb 11 be 1b 91 09 bc e0 32 ab bd 49 3d fe bd
       -0.14255995 -0.008396412 -0.08359313 -0.12414033
000350 7a ea 30 3d d1 56 35 3b e7 6c 48 be fc ab 26 be
       0.043192364 0.0027670155 -0.19572793 -0.16276544
000360 c6 71 b8 3d a6 5b 07 3e e5 f5 ef bd 66 45 b9 3c
       0.090060756 0.13218555 -0.117168225 0.0226161
000370 d4 44 45 3d b3 40 1e be c1 a8 ff 3d fe bf 6d 3c
       0.048161343 -0.15454368 0.12483359 0.014511107
000380 2c e5 0b 3d 76 a8 8e bc 10 7e f8 3b e2 50 98 bd
       0.034154102 -0.017414313 0.007583387 -0.07437302
000390 4a 4e d0 bd 80 b9 f4 bd eb 9f 77 3b cf 14 6b bd
       -0.101711825 -0.11949444 0.0037784528 -0.05739289
0003a0 5a 57 c9 bc a5 dc dd 3c 5f 41 24 be 80 36 9c bb
       -0.024577785 0.02708275 -0.16040562 -0.004767239
0003b0 b2 c9 2a 3a 99 25 2f 3c bd 98 2e bd c9 b9 e6 b8
       0.00065150403 0.010690116 -0.04262613 -0.0001100186
0003c0 ed 9a 0f 3e 11 4c 91 bc 0f 84 a1 bd 83 f2 b1 bd
       0.14023943 -0.017736467 -0.07886516 -0.086888336
0003d0 50 36 c8 bd e5 f0 e3 bd 13 0a 9d bd 84 9e 75 bd
       -0.09775984 -0.11129931 -0.07667937 -0.059965625
0003e0 48 9f 4d bc 82 48 a2 3d 2a c9 84 3e ad b7 f9 bd
       -0.012550183 0.07923986 0.25934726 -0.121932365
0003f0 ee da 7b be 10 26 8f 3e 3f d0 06 3d d1 f6 47 bd
       -0.24595234 0.27958727 0.032913443 -0.048819367

arc_list.Linear_3.bias f4 [32]
000000 3e 21 2e 40 2e 3a ac be d9 60 2d bd c4 c8 b5 be
       2.720779 -0.33638138 -0.04232869 -0.35504735
000010 bb ae 51 3d 4c 81 06 be 77 3c 8c be c5 f0 08 bf
       0.051192027 -0.1313526 -0.2738988 -0.53492385
000020 ea aa f0 3d 58 58 fb be 6b 43 11 bf 58 65 fa 3d
       0.11751349 -0.49090838 -0.56743497 0.12226361
000030 b6 7d 48 be e1 dc c1 be 5f b3 3d be 3c d5 c3 3d
       -0.19579205 -0.3786383 -0.18525456 0.095621556
000040 2c 8a 9c 3d 4d 9c 8d be d5 88 af bb 0e 2b cc 3f
       0.07643542 -0.2765831 -0.005356888 1.5950639
000050 02 42 a2 be 16 e2 c7 be 1d 44 d7 3f 98 0a af 3e
       -0.31690985 -0.39039677 1.6817662 0.3418777
000060 ce 97 9e 3e 9a 8d a6 be 8e 16 83 3f db 19 7f 3f
       0.30975193 -0.32529908 1.0241258 0.9964883
000070 f8 1f 1e 40 cc f1 2a 40 15 c7 63 be 23 b4 dc bd
       2.4707012 2.671008 -0.22243913 -0.10776546

arc_list.Linear_4.weight f4 [1, 32]
000000 ec 36 a4 3e 60 cf 90 3d 5e a3 c0 bb 94 aa 9a be
       0.32073152 0.07070804 -0.00587885 -0.30208266
000010 d7 85 3a 3d ae b1 87 be 8c 75 21 be 98 09 23 bd
       0.045537796 -0.26502746 -0.15767497 -0.03980407
000020 98 b2 87 bc e1 2f 9e 3d af 69 ae be b9 a5 b2 be
       -0.016564652 0.07723976 -0.34065005 -0.3489206
000030 4d 27 b0 3a 51 07 50 be 50 9f 00 3e 40 64 a8 be
       0.0013439447 -0.20315291 0.12560773 -0.32888985
000040 7f 9a 72 bd a2 50 3b bf e2 c4 f4 be ce db e9 bd
       -0.05922937 -0.7316991 -0.4780646 -0.114188775
000050 2c 16 81 3e 5d a1 95 bd c4 b3 a8 bd c4 0b af 3d
       0.25212228 -0.07306168 -0.082374126 0.08547166
000060 5a 27 08 3c 87 b2 1f be 96 25 03 3b f7 89 20 bf
       0.008310163 -0.15595447 0.0020011417 -0.6271052
000070 a7 d3 c7 bf 0b 1a 1d be ee fc 02 be e7 48 ab bd
       -1.5611466 -0.15341966 -0.12791798 -0.083635144

arc.0.weight f4 [128, 56]
000000 13 42 4c c0 c1 bb 88 3e e2 98 a1 3f 97 a8 06 bf
       -3.1915329 0.26705745 1.2624781 -0.52601
000010 33 7b 41 3e c4 2f d9 3e 37 03 f2 be 26 01 c3 3f
       0.18894653 0.42419255 -0.47268078 1.5234725
000020 62 e4 09 c0 d8 e9 46 3e 4e 89 86 3f c6 93 53 bf
       -2.1545644 0.19425142 1.0510652 -0.8264736
000030 4a ea 21 c0 9b 89 a0 c0 b9 1f 9c bf bf 24 09 bf
       -2.5299249 -5.0167975 -1.2197181 -0.53571695
000040 35 6a 50 c0 a4 89 9a 3e 5c e1 cb 3e a8 3e 6f 3f
       -3.2564824 0.30183136 0.39820373 0.9345498
000050 28 0e 0c bf ec a2 b0 bf 43 ef 8e be 33 55 07 bf
       -0.547091 -1.379972 -0.27916917 -0.5286438
000060 48 34 20 c0 73 ce 5e bf e5 fd 00 bf eb ff a0 bf
       -2.503191 -0.87033767 -0.5038741 -1.25781
000070 c7 da 22 c0 ee ce 94 bf fb 11 01 be f1 ae 83 c0
       -2.544603 -1.162565 -0.12604515 -4.115105
000080 46 80 9d c0 42 b7 4a 3d ca da e3 bf 2b 6c d6 3f
       -4.9219084 0.049491175 -1.7801144 1.675176
000090 c0 3c 03 c1 4b ad ac bf 88 99 9a c0 11 65 ad bf
       -8.202332 -1.3490385 -4.8312416 -1.3546468
0000a0 86 0e 1f bd b9 0d 22 c0 1b fc 0d be 90 45 bf 3e
       -0.03883221 -2.5320876 -0.13865702 0.3735776
0000b0 14 e0 8c 3e d2 e7 ff 3e 67 92 18 3e 16 30 71 3f
       0.27514708 0.49981552 0.14899598 0.94214
0000c0 91 da 5a be 9d 95 a8 3e 08 0b a0 3e 1e 31 64 be
       -0.21372439 0.32926646 0.31258416 -0.22284362
0000d0 89 d9 0b bd 21 03 fc be c2 ee a9 3e 97 a2 36 3f
       -0.034143005 -0.49221137 0.3318997 0.7134184
0000e0 4d 50 25 be cf b9 9f bd 2b 82 c5 bd 39 fd 0b be
       -0.16143914 -0.07799112 -0.09643968 -0.13670816
0000f0 25 ef ee bd cd c4 80 be 63 ad 54 be bb 96 35 be
       -0.11666707 -0.25150147 -0.20769267 -0.1773328
000100 06 7b 77 be 27 17 0a be 08 5f a5 bd 33 c1 4b be
       -0.24168023 -0.13485394 -0.080747664 -0.19897918
000110 45 c7 78 bd 0a 15 41 be f1 f7 9a bd 1f a1 65 3e
       -0.060736913 -0.18855682 -0.07566822 0.22424744
000120 46 52 8c be fb 3b 10 3c 52 09 25 be a8 d5 0b be
       -0.2740652 0.008803363 -0.16116837 -0.13655722
000130 77 82 52 be d1 78 d1 bd 4a db 12 3d 2e 23 13 3d
       -0.20557581 -0.10228122 0.03585366 0.03592222
000140 71 76 12 bd ea 07 23 be 88 7a 71 bd 35 75 52 be
       -0.035757486 -0.15920988 -0.058954746 -0.20552523
000150 a0 7e 2c be 43 cc 57 bd ce 32 dd be 8d 60 e6 bd
       -0.16845179 -0.052685034 -0.43202823 -0.11248884
000160 75 e2 bb be 32 4d 22 be 8a b0 d8 bd 18 b7 26 3a
       -0.3669621 -0.1584976 -0.10580547 0.00063596806
000170 de be dc bd 40 31 1d bf c3 ab b1 3b 6a 5b 00 bf
       -0.107785925 -0.61403275 0.005422087 -0.50139487
000180 40 a4 d0 be ec c4 c6 be 33 62 18 bd c0 ef 7a 3c
       -0.40750313 -0.38822114 -0.037203025 0.01531595
000190 02 67 9a be f5 a5 9a 3d ee 5d 32 be 8d 55 06 bd
       -0.30156714 0.07551185 -0.17418644 -0.03279643
0001a0 c8 af ce 3d d9 e0 73 be 95 35 a9 bd b7 5c ca 3c
       0.10092121 -0.23816241 -0.08262173 0.024702413
0001b0 57 c3 e4 bb 69 9e 9c bc 7d b0 05 3d d4 ad ea be
       -0.006981294 -0.019118505 0.032639015 -0.45835745
0001c0 d9 33 6a bf 8f c8 2c c0 bf b2 3a bf 01 51 b2 3e
       -0.91485363 -2.6997411 -0.72928995 0.34827426
0001d0 e0 32 2f bf 83 b4 86 3e 8b a0 f0 be 82 79 5a be
       -0.68437004 0.26309595 -0.46997485 -0.21335414
0001e0 6f 32 80 3e 57 db 51 be e4 72 82 3f 7d b5 0c c0
       0.25038478 -0.20493828 1.0191312 -2.1985772
0001f0 40 2e 74 be 55 65 38 3f 06 51 15 3f 50 e7 32 3f
       -0.23845768 0.7202962 0.58326757 0.69884205
000200 88 d5 44 bf e6 fc d6 3c e4 1e 09 bf 8b 7f 0a 3f
       -0.7688832 0.026243638 -0.5356276 0.54100865
000210 e3 7d b9 be 54 12 8e 3f 55 d6 de 3d 74 da a8 bf
       -0.36228856 1.1099343 0.10880724 -1.3191667
000220 a5 31 81 3f 8d cf 9a be f9 1b 22 bf 9d 29 8b 3f
       1.0093275 -0.30236474 -0.6332393 1.0872074
000230 72 80 92 3e 91 bb 3d 3f 79 f0 89 3f f0 44 e7 3e
       0.2861362 0.7411433 1.0776511 0.45169783
000240 c4 af 26 3f 8d f4 29 bb 39 1f e0 3d f7 5b 2a bf
       0.6511195 -0.0025933117 0.10943455 -0.6654658
000250 b5 dd 93 c0 86 cf 0e 3e 5b 02 f3 3d 35 2c 6e 3f
       -4.620814 0.13946351 0.11865684 0.93036205
000260 65 ad 99 3e cc 3f 83 be 76 f0 b3 3d 4d e3 c0 3e
       0.30015102 -0.2563461 0.08786099 0.37673417
000270 dc 9d 16 3f dc 7b 31 3f 86 58 82 bd 2d b9 88 3f
       0.58834624 0.6932962 -0.06364541 1.0681511
000280 dc c3 95 3f b2 ce 8e 3e e0 f9 62 bc 06 ec b2 bf
       1.1700397 0.2789207 -0.01385352 -1.3978279
000290 a6 1a 73 bf 9d b9 ad 3e 3f 10 5b 3f 0c bc 9a 3f
       -0.9496254 0.33930674 0.85571665 1.2088637
0002a0 6a a2 a4 bf fa 8c 58 bf 09 02 17 bf 9f 7d b5 bf
       -1.2862065 -0.84590113 -0.5898748 -1.4178962
0002b0 6c 93 94 3d 4a 5d 97 bf 9c f5 fd 3e 3a 78 46 3f
       0.07254681 -1.1825345 0.49601448 0.775272
0002c0 23 47 8a 3f 54 68 bc bf a8 e7 2a 3d a8 06 ef be
       1.0802959 -1.4719338 0.04172483 -0.46684766
0002d0 3e de 70 bf 7f ce 39 bd 08 aa 89 3f 45 53 dc 3e
       -0.94089115 -0.045362946 1.0755014 0.4303228
0002e0 7d 01 f5 bc 3b 2d 21 bf 89 af 29 3f 94 b2 fe be
       -0.029907936 -0.6295964 0.6628347 -0.4974562
0002f0 f6 8c c2 bf c3 fa 56 bf bc a2 ad be 39 19 01 bf
       -1.5199268 -0.8397638 -0.3391322 -0.5042911
000300 9b 61 7f bf 7f 19 31 3f 92 f0 79 3e ef f4 c0 be
       -0.9975831 0.6917953 0.24408177 -0.3768687
000310 0f 6a d3 3c 12 32 d2 3e 13 77 5f 3d f7 b3 b6 3f
       0.025807409 0.41053826 0.054556917 1.4273671
000320 e8 9e 7d be 5c 6e e7 be 12 93 c7 3f d4 77 05 be
       -0.24767649 -0.45201385 1.5591757 -0.13033992
000330 60 f1 17 c0 6d df ae bd 03 e3 a9 be 86 25 a6 3e
       -2.3741074 -0.08538709 -0.3318101 0.32450503
000340 ea a1 ac bf 8a e3 1d 3c a2 57 42 3c bd db 8b be
       -1.3486912 0.009636769 0.011861714 -0.27316085
000350 05 20 36 bf 8d 05 1b 3f 70 58 89 3e 8c 75 92 3e
       -0.7114261 0.60555345 0.26825285 0.28605306
000360 4a c3 7f 3e fb 3a d8 be be 92 90 be d0 27 05 3f
       0.2497684 -0.422325 -0.28236955 0.52013874
000370 95 b1 1b 3c 26 48 7d be 33 83 5c be b5 a4 3f 3f
       0.009502788 -0.24734554 -0.21534424 0.748607
000380 3d 00 d1 be 16 49 ad bf 3f 18 1a bf 13 fb 58 bf
       -0.40820494 -1.3537929 -0.60193247 -0.8475811
000390 f4 4d 26 bf f0 1e 17 bf ff 90 24 c0 90 9c 0f 3f
       -0.649627 -0.5903158 -2.5713499 0.5609827
0003a0 bf 5f 3a c0 52 f4 9e be 60 db d6 bf d1 8a be be
       -2.9120939 -0.31045777 -1.6785698 -0.37215284
0003b0 49 e1 9e 3e 38 68 e7 bf 9b 18 1c c0 9e 24 7c 3f
       0.31031254 -1.807868 -2.4390018 0.98493373
0003c0 09 ca 4c c0 9d 44 c5 3e 9d ee 1f bf 08 0f ea 3d
       -3.1998312 0.3852891 -0.6247347 0.11428648
0003d0 27 9f a1 be c1 2c a2 bf 6a f9 42 3f 2a 91 c1 3e
       -0.31566736 -1.2669908 0.76161826 0.37806064
0003e0 07 9f 45 bf b9 bd 22 3e 98 8e 9d be 51 c9 4f 3f
       -0.7719578 0.15892686 -0.30772853 0.8116656
0003f0 ad 54 aa bf db 74 6c bf 26 44 1f c0 a4 61 01 c0
       -1.3307091 -0.9236581 -2.4885345 -2.0215845

arc.0.bias f4 [128]
000000 ce af 4d bd fb c2 82 be 42 1e 90 3e 0d 6f 5a be
       -0.05021649 -0.25539383 0.28148085 -0.21331425
000010 6b bb 15 3d 0d 3a ba be a6 f0 a4 be 8b fb 4a 3e
       0.03655569 -0.36372414 -0.3221485 0.19822519
000020 80 1a 4d be 61 67 84 be a4 b9 4e be 33 97 81 be
       -0.2002964 -0.25860122 -0.20188004 -0.25310668
000030 d6 d6 a7 bc b6 0b c1 bd f5 b4 62 be af 8c 61 be
       -0.020488184 -0.09426062 -0.22139342 -0.22026323
000040 33 32 36 3c d9 af 83 be 54 ba 32 be 40 a0 8e 3d
       0.011120367 -0.257201 -0.17453891 0.06964159
000050 0f 2f 40 3e e3 42 d0 3d 51 7c dd bd b2 85 65 be
       0.18767951 0.10169008 -0.10814727 -0.22414282
000060 d2 09 0f be 7a b0 40 3d 73 af 17 bd 4d d5 73 bd
       -0.1396859 0.0470433 -0.037032556 -0.05952959
000070 f6 67 01 3c 9f 53 8c bd c9 62 b3 bd d5 c8 94 be
       0.007898321 -0.06851887 -0.08759076 -0.29059473
000080 70 1c 6c 3e d0 84 90 be 22 ee d9 3c e1 f6 34 3d
       0.23057723 -0.28226328 0.026602808 0.044180755
000090 e1 a5 81 3e 73 76 e7 be 47 79 b3 be 60 2f 19 bf
       0.25321868 -0.45207557 -0.35053465 -0.59837914
0000a0 57 d1 4a be df b3 df bd 27 ee 19 be 0d 5b ad be
       -0.1980642 -0.109229796 -0.15032254 -0.3385853
0000b0 d6 20 24 3d 62 61 98 be 78 27 9e bd b1 d0 8c bd
       0.040070377 -0.29761797 -0.07722372 -0.06875742
0000c0 44 f0 c8 be 93 48 12 be be a1 d5 bd 9f b2 63 bb
       -0.39245808 -0.14285497 -0.104312405 -0.0034743918
0000d0 bd df 94 be 1f cf 9e bd f0 c2 55 bd f3 9f 6c be
       -0.2907695 -0.07754349 -0.05218786 -0.23107891
0000e0 ca 45 ed 3e 36 c1 c6 3e a0 7d b4 be 29 2f 29 3e
       0.46342307 0.38819283 -0.35252094 0.16521896
0000f0 c0 2c b4 be 70 a8 35 3d 10 33 01 bf 77 a9 0c bd
       -0.35190392 0.044350088 -0.5046854 -0.0343413
000100 f5 9a ae bd 93 79 16 be 53 bd 8e 3c 9e 63 18 be
       -0.085256495 -0.14694814 0.017424261 -0.14881751
000110 0b ff 34 be 1f e9 0e be 24 a2 12 be 39 6a d7 bd
       -0.17675416 -0.13956116 -0.14319664 -0.10518307
000120 29 76 8a 3d 3f 9c ea be e5 ca 63 3e 88 30 1b be
       0.067608185 -0.4582233 0.22245367 -0.15155232
000130 fd 30 10 be 1b 53 bd 3e 4c 4a d1 bd 69 c6 7f be
       -0.14081188 0.36977467 -0.10219249 -0.24978031
000140 df 6f cc 3e de f2 f8 bd 90 f1 45 bd 97 2d 0b bd
       0.399291 -0.12155698 -0.048326075 -0.033979025
000150 f4 4e 9c be f6 57 98 be de e9 1d 3e a1 9a 6f be
       -0.30528986 -0.2975461 0.15421245 -0.2339883
000160 38 a1 e9 3c b0 81 d3 3c 94 72 71 be c4 2f 06 be
       0.028519258 0.025818676 -0.23578864 -0.13104159
000170 50 44 2b 3f 32 c8 ad be ca bf 2a be 3c d7 73 3d
       0.6690111 -0.339418 -0.16674724 0.059531435
000180 1f e1 4b bc 58 d5 d8 be e8 b2 3e be 00 90 1e 3c
       -0.01244381 -0.42350268 -0.18622935 0.009677887
000190 c9 54 f7 3d c7 b5 35 be 92 ed a9 bc da 08 af be
       0.12076718 -0.17745124 -0.020743165 -0.3418644
0001a0 b0 71 0c 3f 00 b6 5b bd 8a 74 fc bd 77 dd ba be
       0.54860973 -0.053640366 -0.123269156 -0.3649709
0001b0 3f c8 51 be 97 48 89 bd b3 bd 57 3c 03 59 c2 be
       -0.20486544 -0.067032985 0.013167786 -0.37958536
0001c0 36 4f 88 bd db a8 2c 3e 0c a8 00 bf 4f 96 d8 3d
       -0.06655733 0.16861288 -0.5025642 0.10575544
0001d0 dd 53 7d be 64 46 e9 bd e7 e8 0a 3e b6 93 da be
       -0.24739023 -0.11390379 0.13565408 -0.4269082
0001e0 a9 01 3c bd d6 f3 cc bd 45 45 c1 3c eb 50 1b bf
       -0.04590002 -0.100074455 0.0235926 -0.60670346
0001f0 93 08 70 be 88 18 1e bf 07 87 db bd 7c ee da 3e
       -0.23440771 -0.6175618 -0.10719114 0.42760074

arc.2.weight f4 [64, 128]
000000 66 ba d4 bf 93 39 5d 3d 6d 19 61 c0 3b ff 65 bf
       -1.6619384 0.054009985 -3.5171769 -0.89842576
000010 0d df 58 bd ec ee 04 bd eb 35 ab bf b9 b1 1e bf
       -0.052947093 -0.032454416 -1.337583 -0.61989933
000020 fc 24 d3 be d7 7b a2 be d4 0b ec bd 35 dc 7d 3d
       -0.41239154 -0.31735107 -0.115256935 0.061977584
000030 a1 2f 4c 3f 08 18 15 be 97 df fa be 85 89 6f 3f
       0.79760176 -0.14559948 -0.4899871 0.93569213
000040 5e 1c c6 bd 63 8b d6 bf ba fe 05 bf 1c 6b 1f bf
       -0.09673379 -1.6761287 -0.52341807 -0.6227281
000050 60 54 46 3f 83 88 51 bf de 8a bd bd d4 d2 88 bf
       0.77472496 -0.81848925 -0.092550024 -1.068934
000060 57 81 ca 3c 84 e4 c1 bf e3 1a 14 bb 2d 9f 90 bf
       0.024719877 -1.5147862 -0.0022599034 -1.1298577
000070 6d 37 18 bf 33 9b de bd 56 c8 4b bd 03 ed b9 bf
       -0.59459573 -0.10869446 -0.049751602 -1.4525455
000080 0b f9 a9 3f 3e 3f 3a c0 e5 31 08 bd 6e 8c 16 c0
       1.3279127 -2.91011 -0.033250708 -2.3523211
000090 c0 6c d8 3e 5b df 06 bd b1 8a 1e 3e 09 34 88 bc
       0.4227047 -0.032927852 0.15482594 -0.016626375
0000a0 41 25 39 3e 8a ed ca bd ff e2 76 bd ae 44 04 bf
       0.18080617 -0.09908588 -0.060275074 -0.51667297
0000b0 3a 51 c3 bd be ce 2e be c5 c7 29 3c 4e 42 15 3e
       -0.09536977 -0.17071053 0.01036257 0.14576074
0000c0 94 bf 22 bf 90 51 cd be 70 6d a5 be 76 31 4f c0
       -0.63573575 -0.4010129 -0.32310057 -3.2373939
0000d0 32 8b b4 bf 5b 50 65 be 21 30 8b be 57 87 ce bd
       -1.4104979 -0.22393934 -0.27185157 -0.10084408
0000e0 64 27 be bf f5 17 71 3d 19 57 c1 3e 11 3a 1e c0
       -1.4855771 0.058860738 0.37761763 -2.472294
0000f0 dd 5a 77 bf e1 24 28 bd 87 58 13 c0 45 a9 bc 3c
       -0.9662302 -0.041050795 -2.3022783 0.023029933
000100 a5 d8 92 3c f0 41 5b 3e 81 05 8b bf 8f 3d f7 be
       0.01792557 0.21411872 -1.0861055 -0.48289153
000110 5c 8d b1 3e b2 77 90 bd d2 bc c5 bd 6e 24 41 c0
       0.3467816 -0.0705408 -0.09655155 -3.0178485
000120 b2 2c c9 3f 8f 45 4d bd 43 ed fd bf dd cf 9b 3d
       1.5716765 -0.050115164 -1.9838032 0.07608006
000130 64 41 16 3c 3c fd 6b 3f 66 ca 97 be fc 19 21 bf
       0.009170864 0.9218328 -0.29646605 -0.62930274
000140 f9 a4 59 bf f8 39 91 bd b2 f3 2c bb 66 44 96 3d
       -0.85017353 -0.07091135 -0.002639037 0.07337265
000150 48 37 ab be 7d 70 e8 bf 43 b4 f0 bf d3 a7 ac be
       -0.33440614 -1.8159329 -1.8805012 -0.3372179
000160 0d 54 89 3f 6e 2e 8f bf 5e 40 53 be 67 20 ae bd
       1.0728775 -1.1186044 -0.20630023 -0.08502274
000170 26 d2 d4 be 10 73 9f bf 5c c1 33 3d a9 84 1d c0
       -0.4156658 -1.2456989 0.043885574 -2.461222
000180 0d 97 bb bf fd 8c 96 3f b4 d6 3d 3f 24 49 b5 3c
       -1.4655472 1.1761776 0.74155736 0.022129603
000190 d9 5f ea bf 1c fe 83 bf eb fd f4 3c fd 93 b0 be
       -1.83105 -1.0311923 0.029906234 -0.34487906
0001a0 b1 a3 3b c0 34 10 e4 be 87 19 45 bd 99 86 70 bf
       -2.931866 -0.44543612 -0.048120048 -0.9395538
0001b0 f3 be c8 bd 95 e9 ac be 01 36 6c 3c b2 09 6d bf
       -0.09802046 -0.3377196 0.014417172 -0.9259292
0001c0 03 5c f3 bc 37 0e b5 bd 05 9b 51 bf fd cd 27 c0
       -0.02970696 -0.08840602 -0.81877166 -2.6219475
0001d0 57 25 35 bf 26 8c 41 bc 08 a6 66 bf c4 ea 62 be
       -0.707601 -0.011813199 -0.90097094 -0.22159868
0001e0 8a 6c 57 bc f7 71 02 bf 95 fc 08 be 06 65 08 bf
       -0.013148436 -0.50955147 -0.13377602 -0.5327915
0001f0 34 16 68 bc d8 51 af bf 15 0b 8a be 5f 2f 02 3f
       -0.01416545 -1.3696852 -0.2696158 0.5085353
000200 78 9c 17 3c 21 b4 c7 bd db 6d 91 3f b6 83 6f bd
       0.009253614 -0.09751154 1.136165 -0.05847522
000210 28 38 72 3b 03 3c d0 3b aa a2 b1 bd c4 c1 86 bc
       0.0036959741 0.00635481 -0.08673604 -0.016449817
000220 03 72 db bd 84 04 09 3d 7f da 87 bd 3d 6d 92 3d
       -0.107151054 0.033451572 -0.06633472 0.07149742
000230 cb ed 39 bf 8b 68 81 be 55 01 1d 3d 40 83 45 be
       -0.7262847 -0.25275072 0.03833135 -0.19288349
000240 5d cc dc bd 5d 9e 3f bc b6 e4 ca be 9c 24 98 bf
       -0.10781167 -0.011695472 -0.39627618 -1.1886172
000250 bf 52 57 3e 29 63 ee bc a6 74 38 bf ae e3 26 3e
       0.21027659 -0.029100018 -0.7205299 0.1629779
000260 82 de 16 3e b7 e5 d1 3e 6e 97 80 bd 2c 9c ee bf
       0.14733317 0.4099557 -0.06278883 -1.864141
000270 83 23 98 bd e5 50 1d be da 8c cb bd 7d 3d 90 be
       -0.07428648 -0.1536289 -0.09938975 -0.28171912
000280 18 a5 71 be 47 1d 9d be c2 eb b8 be 0c 94 9d bf
       -0.23598135 -0.306864 -0.3611737 -1.2310805
000290 70 f2 15 bf 67 80 6a 3d 37 1b ac be 24 b4 9b bd
       -0.58573055 0.05725136 -0.33614513 -0.076027185
0002a0 3b ab 23 bf 85 f9 b4 bd 6b 50 bd 3d 57 02 d6 bf
       -0.6393315 -0.088366546 0.09243854 -1.6719464
0002b0 36 aa e6 bd eb ea 08 bf f5 f4 00 be a0 71 2d c0
       -0.11262934 -0.53483456 -0.12593444 -2.7100601
0002c0 90 23 eb 3d a9 b5 fe bd 0f 60 d8 bd 0d 4b 50 bf
       0.114813924 -0.12436993 -0.10565197 -0.8136452
0002d0 9e 7d a7 3e 60 35 5c bd 9a 19 18 3d 85 ed df bf
       0.32713026 -0.05376184 0.03713379 -1.749436
0002e0 49 91 a2 bf fe d7 bf bf 38 50 c2 bf 80 2f a2 be
       -1.2700588 -1.498779 -1.5180731 -0.31676865
0002f0 1f 57 09 3f 88 e2 6e bd c9 55 4d bf 06 e0 b3 bc
       0.5364856 -0.058321506 -0.8020902 -0.021957409
000300 c3 ea f1 3d f2 1d ac bf e6 37 c9 3e f7 b5 33 be
       0.11812355 -1.3446639 0.3930046 -0.17549883
000310 69 a1 26 be 06 b5 7c bd fb b2 0a 3d c4 fb 64 bf
       -0.1627251 -0.061696075 0.033862095 -0.89446664
000320 5a 28 97 bf a8 de 91 3e e4 04 fb bf 09 69 9d bd
       -1.1809189 0.28490186 -1.9610868 -0.076860495
000330 3e 0c 64 3d 9f fa 63 3f f4 a8 5a 3d 9c 67 c9 bd
       0.055675738 0.8905429 0.053383783 -0.09834215
000340 d2 47 2a 3d 74 9c dd 3c 5c ee 66 bd 09 90 46 3d
       0.0415724 0.027052142 -0.05637966 0.048477206
000350 dd cf 34 3d 05 77 bc 3e ac 75 c2 bf 74 b8 a9 bd
       0.044143546 0.36809555 -1.5192161 -0.08287135
000360 be a8 82 3b e9 77 dd 3c ff df 41 3d 69 d4 d3 39
       0.003987401 0.027034717 0.04733276 0.00040403314
000370 0c 22 02 bf b7 e6 c5 bf b9 1c 0b be 7a 0c 12 bf
       -0.508332 -1.5461034 -0.13585176 -0.5705029
000380 21 4b 2b be 12 2c 3d 3d 76 06 4d bf 07 26 c0 3d
       -0.16727878 0.046184607 -0.80087984 0.09382253
000390 d5 32 20 c0 2b 53 71 be 9d 41 55 3c 82 2e ca 3d
       -2.5031025 -0.23566882 0.013016132 0.09872152
0003a0 fc ce 32 3e 43 5c e5 bd 27 ea a5 3c bc 53 88 bd
       0.17461771 -0.11199238 0.020253254 -0.06656596
0003b0 c2 d1 56 3d 23 07 63 3c 8d 25 f3 bd d8 e5 09 be
       0.052446134 0.013856682 -0.118723966 -0.13466585
0003c0 02 3c a1 bc f5 3f 13 3f 1f 4d fd bd ef 4d df 3e
       -0.019681934 0.57519466 -0.12368225 0.43614146
0003d0 e5 f8 8b bf 7e a5 86 3c 69 65 14 3d 52 47 75 3d
       -1.0935332 0.016436335 0.036229525 0.05988247
0003e0 f0 25 03 bd f0 d8 70 bd f4 7e 9d 3b 16 a8 19 bd
       -0.032018602 -0.058800638 0.0048063938 -0.037513815
0003f0 35 ca e3 3c db 41 33 bd 89 c6 74 bd 22 d3 e4 bf
       0.02780638 -0.043763977 -0.05975965 -1.7876933

arc.2.bias f4 [64]
000000 49 b3 9b 3e 8d ad a4 3e 78 e6 2c 3f b7 da 36 3e
       0.3041022 0.3216366 0.6753917 0.1785687
000010 0f 0e dc bd cc 1d 98 3f 98 b5 d8 40 88 6d c8 3f
       -0.10744869 1.1884093 6.772167 1.5658426
000020 01 75 81 be 9f 8b 10 40 0e 6b a2 be b3 e7 d6 3f
       -0.2528458 2.2585218 -0.317223 1.6789459
000030 90 22 3f bf 9a 11 8f bf 09 ef ec bc 84 fc 4e 3f
       -0.74662113 -1.1177247 -0.028922575 0.8085406
000040 2a 1c 9e bf d2 56 c9 3f af 8f 93 3e 5e 55 94 3e
       -1.2352345 1.572962 0.2882056 0.2897138
000050 6c 37 83 3f 24 57 01 be 77 cd b5 be 1e 17 eb bf
       1.0251288 -0.12630898 -0.3550832 -1.836643
000060 64 97 76 3e 95 a8 e3 be 3b 85 0f be df 21 a8 be
       0.24081188 -0.44464555 -0.14015667 -0.32838342
000070 87 33 9f bd 84 a7 c8 3f f3 b3 aa bf 2c 13 7b 3f
       -0.077735 1.5676122 -1.3336166 0.9807613
000080 2b 66 4f 40 79 da 20 bf 7e 36 e8 3d 57 c8 02 bf
       3.2406108 -0.6283336 0.113385186 -0.51086944
000090 46 be 92 bf 63 da db bf ce 76 a4 3e 1f a3 c3 3f
       -1.1464317 -1.7176021 0.3212189 1.5284156
0000a0 5e 5e 7a 3e e9 f5 11 3f 86 ee b8 3f 45 4a 51 be
       0.2445006 0.57015854 1.4447792 -0.20438488
0000b0 8f 6b f3 bd a8 09 88 bd 5e 08 3b 3f 53 21 e6 3f
       -0.118857495 -0.06642467 0.7305964 1.797892
0000c0 c8 46 08 be e6 24 bc bd ca 91 d5 3f 64 30 c1 3f
       -0.13308251 -0.09186725 1.6685116 1.5092893
0000d0 f5 01 07 bf 40 f9 9b 3e 3d 1d 4d 3f fc ef 2d bf
       -0.5273736 0.304636 0.8012274 -0.6794431
0000e0 de 0d fd 3f 4f c1 16 bf 10 57 16 bf ec cd 87 3e
       1.9769857 -0.58888716 -0.58726597 0.26524293
0000f0 1c 0b fb 3f 71 91 d8 be 9e ec 1d 3e 30 92 64 bf
       1.9612765 -0.42298463 0.15422294 -0.89285564
